models/Both/Data/Playerinputs23_24.npy (npy, 205256 bytes, 1 tensors)

array f8 [333, 77]
000000 fd 8c 60 b7 76 22 d6 bf 45 7d 89 d2 f0 eb c9 bf
       -0.34585349948811467 -0.20251283912782916
000010 11 39 78 49 ca b9 c4 bf 96 ec f7 62 a8 e6 d1 bf
       -0.16191986644157244 -0.27970323243034423
000020 7b d4 8a 45 37 3a d7 bf 0a 5e 0d c3 33 f5 d3 bf
       -0.36292821685066884 -0.31184095428531633
000030 49 b6 ac e1 70 c8 b0 bf 1f 0b 6b 33 72 39 c9 bf
       -0.06555848607669036 -0.19706561575557033
000040 d2 7b 77 92 da 84 f9 3f b6 cc e0 82 a0 de f1 3f
       1.5949350091320764 1.1168522941996293
000050 97 b7 50 58 44 45 d3 3f 15 94 7d 6e dc 25 94 3f
       0.30110272049466275 0.019675678485686705
000060 1b 51 fb e5 00 23 eb 3f d8 a2 57 3a 0a 0e d1 3f
       0.8480228893118097 0.26648193070881865
000070 63 e6 66 72 83 61 ec 3f 1a 1f e3 94 81 3d ca 3f
       0.8869034990704673 0.20500201959497916
000080 0a e0 ee 16 d1 05 db bf 8a e7 96 20 4c 53 f1 bf
       -0.4222300266224016 -1.0828362725282852
000090 b3 27 a5 4d 32 fe ee bf a8 a3 ca 15 8d 7e 73 bf
       -0.968529845858248 -0.0047593604219082
0000a0 70 a6 1e 81 b7 97 e0 bf 5d 79 b1 91 68 09 e9 bf
       -0.5185201188916846 -0.7823984952517936
0000b0 36 93 64 7f 3c 63 e7 bf f0 c5 3e 24 6d 8b eb bf
       -0.7308638084547059 -0.8607698161997046
0000c0 29 3e e9 3c 9e 2d eb bf 10 6d 8f 08 d2 66 ea bf
       -0.8493186177892699 -0.8250513236229455
0000d0 8e 88 fd 34 de 76 f0 bf e4 8a b4 96 ee fd ff 3f
       -1.0290205068527345 1.9994951140330892
0000e0 f3 d5 7c 66 7b c0 f3 3f af a6 fb 9a ca c9 61 3f
       1.2344926837371275 0.0021714169632688
0000f0 36 99 e4 b3 0d 03 cd 3f 98 be 2c b0 45 f1 e8 3f
       0.2266556862243278 0.7794521752275214
000100 87 ab 97 05 a2 70 f2 3f df 10 7c 2c 80 12 c8 3f
       1.1524982660727987 0.1880645959100837
000110 5f c9 1f 31 db ac bd 3f 44 33 40 03 c0 e4 c2 bf
       0.1159188265735671 -0.1476058975098572
000120 d3 37 05 84 5f 94 03 40 2a d2 6d 17 60 4f db bf
       2.4474478067486216 -0.42671968734728927
000130 44 7d 89 d2 f0 eb c9 bf 74 fe d3 c7 13 05 d3 bf
       -0.20251283912782914 -0.2971848918386748
000140 6f 5e ea 87 9f da d6 bf f2 4c 24 58 21 7b dd bf
       -0.35709369919775374 -0.4606402741203076
000150 55 95 2b 8c e0 cf d5 bf 9e 48 9a 06 44 01 c0 bf
       -0.3408128136491844 -0.12503862688442252
000160 65 ff 9f 7f e8 62 be bf 00 42 f3 1d ca ed b2 3f
       -0.11869671932072164 0.07394088011938749
000170 46 7d 89 d2 f0 eb c9 bf 78 a8 08 d3 86 0a c0 3f
       -0.2025128391278292 0.12532124809633038
000180 03 95 fb 01 44 13 d7 3f 51 4e 4c 13 c7 f5 ea 3f
       0.36055088227870175 0.8425021531024389
000190 00 f1 8f 77 db 61 a9 bf 5e 54 42 6a e8 ed d1 3f
       -0.049574716897014426 0.2801457441031
0001a0 8c da 40 db eb 11 d4 bf 8a e7 96 20 4c 53 f1 bf
       -0.3135938302179191 -1.0828362725282852
0001b0 72 79 4e 8a 8b 19 d4 3f 67 f5 35 a7 4b 23 eb bf
       0.3140591478967486 -0.8480585351787057
0001c0 bb 97 de 5f 8f 45 f1 3f 95 29 a7 5c 69 33 f5 bf
       1.0794824356939745 -1.3250516528374636
0001d0 5d 79 b1 91 68 09 e9 bf 5a ec f0 fa ef 54 ed bf
       -0.7823984952517936 -0.9166183377450452
0001e0 12 17 5e 5a db 04 b4 3f f9 93 8d 60 7b 0c ee bf
       0.0781991096137882 -0.939023674564509
0001f0 5d 5e df b2 72 b6 d1 bf 87 64 05 a1 c5 0a 99 3f
       -0.2767607447435461 0.024455154374071
000200 fe 74 a6 13 c1 6d e7 bf 99 f3 1b f5 d6 17 f0 bf
       -0.7321477302354251 -1.0058202337815827
000210 1f 07 09 10 f5 27 f8 3f 78 4a 78 40 0b 85 d9 3f
       1.5097551943185363 0.3987453584278806
000220 34 b6 bc 50 5c 76 da bf 94 19 8e 55 fb 58 ed bf
       -0.4134741581391126 -0.9171120329854596
000230 73 78 53 ca d0 b1 f2 bf b4 67 74 5d f5 50 c7 bf
       -1.1684120086061085 -0.1821581560441793
000240 0d bb 14 88 76 cd e8 bf e1 f3 e7 21 e5 39 fc bf
       -0.7750809343177437 -1.7641345333533922
000250 66 66 66 66 66 66 04 40 00 00 00 00 00 00 0e 40
       2.55 3.75
000260 66 66 66 66 66 66 04 40 40 84 a9 8b 9b 0c d7 bf
       2.55 -0.3601445068252964
000270 45 7d 89 d2 f0 eb c9 bf 81 38 50 ec 6f aa c8 bf
       -0.20251283912782916 -0.19270133055437458
000280 0e 12 33 c8 e5 c9 d5 bf a6 5e d0 1d 93 47 d8 bf
       -0.3404478507111727 -0.3793685713912772
000290 7c 2e 95 14 f6 8c d4 bf 13 c3 2d f9 ca fb c6 bf
       -0.3211035920146299 -0.1795591084187654
0002a0 ff f5 64 36 4a b8 c0 bf 9b b2 18 78 5a bc fa 3f
       -0.13062408119178312 1.6709847155827109
0002b0 f7 29 ea 35 fc e8 f0 3f c2 3c 66 cb e9 f5 d4 3f
       1.0568811517756538 0.32750935424060057
0002c0 18 e8 d6 f3 57 0f e0 3f 2f a0 74 db 6e 58 f6 3f
       0.5018729937066864 1.3965900967105076
0002d0 8a e1 55 de ad 0a e7 3f c0 fa 24 36 82 2b e9 3f
       0.7200536100854589 0.7865611131199657
0002e0 78 3d da e3 86 f2 db 3f ed 9f 0a 9f 25 b2 f6 3f
       0.43667766810627695 1.4184929096754744
0002f0 5e 28 21 3d 45 ae e5 bf 5b 58 f2 1a 62 6f d7 bf
       -0.677523250001524 -0.36617329246053537
000300 b6 d8 ec 7d 73 85 c6 3f a8 dc 28 53 f1 1e e6 3f
       0.17594760559740558 0.6912771820269841
000310 70 50 19 87 46 a2 c0 bf a0 57 34 b3 5b e4 88 3f
       -0.12995225521683862 0.01215430870665185
000320 f0 c5 3e 24 6d 8b eb bf 00 0f f1 af 95 96 67 3f
       -0.8607698161997046 0.002879421575501584
000330 98 cf 48 6d c0 cb e7 bf aa 15 fa 84 58 34 f3 bf
       -0.7436220297299654 -1.2002797312173734
000340 03 fd 32 90 2b 40 f7 3f 4c 12 60 f1 0d 1a ea 3f
       1.4531665451793863 0.8156804766045496
000350 73 c8 38 b9 43 e2 cf bf 36 99 e4 b3 0d 03 cd 3f
       -0.24909254592927574 0.2266556862243278
000360 98 be 2c b0 45 f1 e8 3f 87 ab 97 05 a2 70 f2 3f
       0.7794521752275214 1.1524982660727987
000370 df 10 7c 2c 80 12 c8 3f 5f c9 1f 31 db ac bd 3f
       0.1880645959100837 0.1159188265735671
000380 44 33 40 03 c0 e4 c2 bf 0d b9 74 eb 61 d0 f5 3f
       -0.1476058975098572 1.3633746335504526
000390 5b 55 f4 2b bd be d9 bf 45 7d 89 d2 f0 eb c9 bf
       -0.4022667817347007 -0.20251283912782916
0003a0 e7 cf 82 67 52 85 d8 bf a7 4c e3 2d 15 68 ce bf
       -0.38313732250685323 -0.23755135288829374
0003b0 82 a0 8a 96 dc b9 d8 bf 08 60 fe 03 a1 e6 cf bf
       -0.38634409619636056 -0.2492257375240572
0003c0 11 f7 a7 51 4e 8b d4 bf 75 73 4b 51 8a b0 a0 bf
       -0.32100255941610195 -0.032596895621941714
0003d0 5d 02 dc 51 66 8d e8 3f ea 54 55 4d 01 b7 d7 3f
       0.7672607039276717 0.37054474403460225
0003e0 db 76 c5 2f 86 25 9e bf e4 0b f5 8f 5b f3 f1 3f
       -0.029440018335086342 1.1219134925202008
0003f0 59 5e 79 95 2c 89 f0 3f 06 03 d6 50 d4 7c ec 3f
       1.0334897841293211 0.8902379587962919
000400 f3 0e 45 1b ad 10 c2 3f f7 73 04 30 fb a8 c7 3f
       0.14113391715556353 0.18484439701651897
000410 93 0e 4e 43 4e 2a d1 3f cf c3 92 a7 b2 91 b1 3f
       0.2682071358942519 0.06862942305703189
000420 b0 21 d0 b2 7b 68 e4 3f 36 e8 1c 62 4c 9f bd 3f
       0.6377542965356522 0.11571195025763434
000430 c8 ce 30 87 20 6c ea 3f d7 68 d1 20 af 7a f0 3f
       0.8256991043512807 1.0299521715119704
000440 0b aa 64 a9 13 55 c9 3f 7c 8e b2 87 70 06 c4 3f
       0.1979088379969912 0.156446520098246
000450 bb 91 db a5 e2 72 e9 3f d0 68 b7 87 10 48 cf 3f
       0.7952740897567802 0.2443867361715264
000460 0a f4 c1 79 16 a9 dc 3f 6f 76 0b 60 22 5d e1 3f
       0.4478203000106197 0.5426189304232149
000470 3a 33 aa a3 07 92 d5 3f e1 5f 37 a7 eb 02 e0 bf
       0.33703795416731774 -0.5003565088218204
000480 ed 9a 2f f6 42 9b e7 bf 86 21 81 1e 4b c6 e6 bf
       -0.7377028282470214 -0.711705741480771
000490 ec f5 84 d6 22 21 be 3f 46 26 4c 0e 2e b5 ec bf
       0.1176931165436696 -0.89711668770287
0004a0 9c 29 f0 c7 e3 38 f1 bf 7c 58 71 9c ce 28 d7 bf
       -1.0763891038974185 -0.3618656661759656
0004b0 d9 6b c6 28 1b 4a dc 3f 9a 99 99 99 99 99 fd 3f
       0.44202307683889114 1.85
0004c0 00 00 00 00 00 00 10 40 cd cc cc cc cc cc 0c 40
       4.0 3.6
0004d0 a2 0f d4 b6 da 17 d9 bf 45 7d 89 d2 f0 eb c9 bf
       -0.3920809541161764 -0.20251283912782916
0004e0 94 29 c0 7c 5e 70 cf bf e5 1d ba b4 83 3e d7 bf
       -0.2456167325147588 -0.3631905808365146
0004f0 4d 1e da cf 1b f9 da bf 3c 48 d4 41 bd 90 d5 bf
       -0.42145438478516867 -0.33695918491969556
000500 b8 12 5d 8f 48 d0 ca bf ec 89 8d c6 6c 00 c1 bf
       -0.20948130607771076 -0.13282546706166387
000510 f3 04 bd 38 c5 b8 f9 3f 0d 49 ed c6 1a 97 f0 3f
       1.607609960207182 1.036890770967662
000520 2e 76 0e 14 86 de d6 3f 89 e0 04 84 4e 07 e7 3f
       0.35733177145616224 0.719641931390485
000530 65 8e c7 85 8f 97 f7 3f 4e fa 59 f8 c4 11 eb 3f
       1.4745021081697811 0.8459191179861791
000540 86 7c 58 49 cb 5e eb 3f 60 a0 0a 63 01 52 d8 3f
       0.8553215439350346 0.38000521347067284
000550 dc 66 fd c2 81 bb f4 3f 21 46 72 e6 7e 5b e1 bf
       1.2957780472556157 -0.5424189091592703
000560 e4 61 4d 64 84 f3 c3 3f 88 15 05 7f 8f af d1 3f
       0.15586905381748217 0.27634036449702437
000570 89 ea 20 1f c2 d1 e1 3f 58 d5 4f 5c a9 7b c4 3f
       0.5568552597026876 0.16002385146536358
000580 20 3b 65 7c 01 a1 d0 3f 35 ee 08 88 27 b6 da bf
       0.25982701442710443 -0.41736782345444406
000590 cd 3a de 24 39 47 d4 3f f7 01 6d 76 73 16 e6 bf
       0.3168471202888384 -0.6902406037334562
0005a0 9a 37 21 f8 87 3a db bf 66 50 e1 0c 0e 47 e4 3f
       -0.42544745665952066 0.6336736918988322
0005b0 07 c1 4b fc b2 97 e1 3f ea a6 fb 9a ca c9 61 3f
       0.5497679641394208 0.0021714169632688256
0005c0 36 99 e4 b3 0d 03 cd 3f 98 be 2c b0 45 f1 e8 3f
       0.2266556862243278 0.7794521752275214
0005d0 87 ab 97 05 a2 70 f2 3f de 10 7c 2c 80 12 c8 3f
       1.1524982660727987 0.18806459591008368
0005e0 5e c9 1f 31 db ac bd 3f 44 33 40 03 c0 e4 c2 bf
       0.11591882657356709 -0.1476058975098572
0005f0 51 3c 57 4e a7 77 d2 3f ba 6e 0d bc c2 96 db bf
       0.2885530724569821 -0.431076701779357
000600 46 7d 89 d2 f0 eb c9 bf 0e fd ef de b1 de dc bf
       -0.2025128391278292 -0.4510922124026856
000610 12 52 22 0e 8c ff d9 bf b2 d2 85 59 6c 0d e0 bf
       -0.40622235660819783 -0.5016385792246949
000620 88 7c 94 fa e0 c0 d4 bf 01 16 0c 1f 68 bc cf bf
       -0.32427238913255296 -0.2479372169110974
000630 e8 3c f7 77 3f b5 ab bf 47 57 03 3c e4 32 c3 3f
       -0.05411718692232076 0.14999058657002193
000640 46 7d 89 d2 f0 eb c9 bf 50 96 bc 8b 46 07 ba 3f
       -0.2025128391278292 0.10167351638355027
000650 53 1f 2b 19 0e 6d d9 3f 2f 9b 7b 37 00 02 eb 3f
       0.3972811933313 0.8439942439698366
000660 b6 1d 53 e7 bd 31 d3 3f c9 74 69 d6 3d 87 b1 bf
       0.2999109992055894 -0.06846987232843839
000670 70 96 ba 52 b4 35 db bf 51 03 29 72 e4 6b d1 bf
       -0.4251528556727413 -0.2722102274747629
000680 72 79 4e 8a 8b 19 d4 3f f9 bc d0 67 2f 25 df bf
       0.3140591478967486 -0.486644603140078
000690 51 1e 6b 02 8f 07 c0 bf 93 80 36 28 4f 81 bd bf
       -0.1252306711014506 -0.115254351918795
0006a0 48 c2 0d 97 cb 13 e2 bf 11 3a d8 03 89 71 e1 bf
       -0.564916415240142 -0.5451092791643665
0006b0 a5 c6 43 23 ba 4a fa bf 85 a0 61 89 66 33 f6 bf
       -1.643243921044282 -1.3875489584407046
0006c0 3b 4c f1 4a 89 4e 00 c0 b1 8d 34 04 b6 d3 f1 bf
       -2.038347802628349 -1.114187256266501
0006d0 6f 01 14 0d c2 15 f0 bf b3 36 1f 77 2f cd a6 3f
       -1.0053120146622765 0.0445341904556761
0006e0 af a6 fb 9a ca c9 61 3f ed 9a 2f f6 42 9b e7 bf
       0.0021714169632688 -0.7377028282470214
0006f0 34 b6 bc 50 5c 76 da bf d4 7a bd fa d6 94 d9 bf
       -0.4134741581391126 -0.3997094582208949
000700 47 26 4c 0e 2e b5 ec bf 0c 5a bc 29 2c bc de bf
       -0.8971166877028701 -0.4802351386619257
000710 94 b3 b6 da 18 68 d5 3f 69 a9 d1 41 00 82 03 40
       0.3344785819888838 2.438477052889699
000720 33 33 33 33 33 33 fb 3f 00 00 00 00 00 00 10 40
       1.7 4.0
000730 00 00 00 00 00 00 13 40 d1 ef b5 ca a2 1d db bf
       4.75 -0.4236838321301067
000740 45 7d 89 d2 f0 eb c9 bf 78 d9 8c 42 7b ba d2 bf
       -0.20251283912782916 -0.29263192652742687
000750 0e cd 9b ac 7f e7 d9 bf 9a c7 c5 c2 d6 ee dd bf
       -0.40475456100757945 -0.46770257015952554
000760 f9 75 a4 00 ad a8 d6 bf 44 d0 39 3f a2 14 d0 bf
       -0.3540451532624896 -0.2512593858184611
000770 aa 80 14 22 c7 fd b6 bf 1f 85 ef 20 f0 e1 f6 3f
       -0.08980984289201169 1.4301606451557018
000780 e9 ac 10 0a f2 a2 eb 3f a1 79 c7 60 f4 fe d7 3f
       0.8636408039650664 0.3749361939534542
000790 6d a6 e8 42 0b 40 f1 3f 38 c8 02 c5 1a b8 f9 3f
       1.0781357396721447 1.6074474044549003
0007a0 b1 aa ee 49 d8 f6 ef 3f e9 6f 50 1b e5 3f eb 3f
       0.998882431410797 0.8515496762734048
0007b0 f6 06 93 64 c6 9d b3 bf 1c 4b 32 33 11 96 fc 3f
       -0.07662620501926284 1.7866374969350494
0007c0 93 0e 4e 43 4e 2a d1 3f 62 ef 60 0c 95 8d e0 3f
       0.2682071358942519 0.5172829858561097
0007d0 67 8c a4 98 7e 41 d4 3f 89 ea 20 1f c2 d1 e1 3f
       0.3164974680568719 0.5568552597026876
0007e0 c9 1e 2a 55 25 c3 cd 3f cd dc 71 e1 ab 38 e2 3f
       0.2325178781359141 0.5694178965776701
0007f0 80 a0 88 bc e6 5d d7 3f 01 59 12 07 d7 67 ea 3f
       0.36510628139013335 0.8251757753485266
