models/Both/Data/Playerinputs22_23.npy (npy, 201560 bytes, 1 tensors)

array f8 [327, 77]
0	0xbfd9791271706158	-0.3980146510889617
1	0xbfc9ebf0d2897d46	-0.2025128391278292
2	0xbfb796d30ad1b3aa	-0.09214514745845173
3	0xbfd1fa084e3c63ac	-0.2808857692739888
4	0xbfdc459e93b2d1cc	-0.44174923347170814
5	0xbfd4c365557e1cdd	-0.3244260153664536
6	0xbfb6c45648fe011c	-0.08893336565052262
7	0xbfe9d7f339f20b82	-0.8076110965488257
8	0x3ff1005b4b0efc54	1.0625870639776354
9	0x3fe9811326257c27	0.7970062012717606
10	0x3fe3a63963726196	0.6140410368271201
11	0x3ff3be872350298f	1.2340155963343908
12	0x3ff0892c95795e5a	1.0334897841293214
13	0x4002bfc7bcac35fa	2.343642686849077
14	0x400623d1d4cab4d7	2.7674900650368772
15	0x3ff096b6603d7047	1.0367950209975036
16	0x3fd4198b8a4e7972	0.3140591478967486
17	0xbfd16be472290351	-0.2722102274747629
18	0x3ff33302b31630e3	1.1999537463735173
19	0xbff359ffcd41c629	-1.2094724672173334
20	0x3ff7f70645ac44b1	1.497808715972763
21	0x3ff2cc8e1f07fb33	1.1749402248530714
22	0x3ff206e32a0b741e	1.1266814844486883
23	0x3fe688a12052c8c5	0.7041783934894502
24	0x40019af01fba89de	2.2006533125688597
25	0x3fca11ed512a2ddf	0.2036720892250363
26	0x3ff29476ce1fb328	1.1612461139404306
27	0xbfe76dc113a674fe	-0.7321477302354251
28	0xbfc146435188a760	-0.134956755458286
29	0xbfe002eba7375fe0	-0.5003565088218203
30	0x3ff2c243ea22a558	1.1724280496512929
31	0x3ff13e315327c283	1.07768375856918
32	0x3fec99fc1f17a8fa	0.8937969786905164
33	0x3ff8b670d5727cab	1.544541200426276
34	0x3ff02992cf53993c	1.0101497744268064
35	0xbff556c7ed8508be	-1.3336867597686672
36	0x3f966bdbc7a4aa16	0.0218958225824882
37	0xbfd7e5030f5b3980	-0.3733527803386991
38	0xbfc9ebf0d2897d45	-0.20251283912782916
39	0xbfd7c8448b253b84	-0.37159837330266776
40	0xbfd6506d8155544d	-0.3486589205761604
41	0xbfddbab566770f94	-0.46452078825336085
42	0xbfd65a43448ee0a1	-0.34925920195702004
43	0xbfd2dce7979d2808	-0.2947329502682128
44	0xbf9ff32ec0ca1590	-0.03120110561078132
45	0x3feb3050c363f910	0.8496478859158589
46	0x3fddaf71651b10a7	0.4638331878052306
47	0x3fcd8fb26bb4d1ce	0.23094778308008163
48	0x3fe56d8d3d13db55	0.6696230118676377
49	0x3ff4a45ebd5d3084	1.2901294133216945
50	0x3fe83146c1327ae7	0.756015183771379
51	0x3fdd1ec8add86631	0.45500390030938137
52	0xbfe3143958aa8177	-0.5962187511213831
53	0x3fe13ab3cf04cbc3	0.5384158175787593
54	0x3fe1e755355c20f9	0.5594888727364654
55	0xbfd4dd730152e17f	-0.326016188900688
56	0x3fbd9f4c621ce838	0.11571195025763437
57	0xbfbd814f28368090	-0.11525435191879496
58	0xbfd63c5d38d41664	-0.3474343352284903
59	0xbfd6ffab1097c1d6	-0.35935474987402694
60	0xbfd75f7be9dd17e5	-0.36520288313147226
61	0xbfd0150d4943597c	-0.2512849059543425
62	0xbff06a20dd631257	-1.025910248558963
63	0xbfcd6a70a86d05bb	-0.22981079315108652
64	0xbfdd5ffc1a49ce39	-0.4589834458085736
65	0x3fb7e18389692394	0.0932848177409496
66	0x3fd59485824e7156	0.33719003415332816
67	0x3fa3051705fade95	0.03714820812223
68	0xbfda765c50bcb634	-0.4134741581391126
69	0xbfed58fb558e1994	-0.9171120329854596
70	0xbfd6b08e032d220d	-0.3545260458963931
71	0x3fbdacdb311fc95e	0.11591882657356709
72	0x3feec852f4a00807	0.9619536187967704
73	0x3fb56c3eeb93af8f	0.08368294955624676
74	0x3ffbae147ae147ae	1.73
75	0x4010cccccccccccd	4.2
76	0x4010cccccccccccd	4.2
77	0xbfdbce4858899327	-0.43446549078207614
78	0xbfc9ebf0d2897d45	-0.20251283912782916
79	0xbfdeb1a9388ce059	-0.47959356806268755
80	0xbfd5e6a54a9f2d6d	-0.34220249450000645
81	0xbfdca1038e2d965c	-0.4473275078256387
82	0xbfcf578a374b3066	-0.2448590059269719
83	0xbfd0d3485542cf61	-0.2628956635119178
84	0xbfa22169a1c581ef	-0.03541116809606481
85	0x3fe0f7b8074cf9ab	0.5302391188231942
86	0x3fd96bb39d44af20	0.39719858511192463
87	0x3fc3116a603305c8	0.1489689798091105
88	0x3fc754c5485ba083	0.18227449448682273
89	0x3ff4e79904615743	1.3065424128630674
90	0x3fa54c005ddee4ee	0.0415954699123605
91	0xbf90a837314a8a87	-0.016266691573614735
92	0xbf91b5c5daf36f8c	-0.01729497097845427
93	0x3fd4198b8a4e7972	0.3140591478967486
94	0x400146fff7cdd9a6	2.1596679076858036
95	0xbff16c8c7a0a2d01	-1.0890011565377906
96	0x40014f4ea6697d0e	2.1637242318098577
97	0x3fd26ec76e220c95	0.2880114150540945
98	0xbfe9096891b1795d	-0.7823984952517936
99	0xbff49c2b7904cf52	-1.288127396325724
100	0xbff548b8b602052d	-1.330254279106451
101	0xbff1e51ad3eb1fcd	-1.1184337881149873
102	0xbfe4688ff039cfb0	-0.6377639476690913
103	0xbff076de34fd888e	-1.0290205068527345
104	0x40022e680cfaa8ea	2.2726593984599406
105	0x3fe940380c113d5d	0.7890892253580365
106	0xbfe002eba7375fe0	-0.5003565088218203
107	0xbfe8cac13ca2c3fa	-0.7747503456395173
108	0x3fc76c2f0f9cc6f8	0.1829890085442043
109	0x3fbe2122d684f5ec	0.1176931165436696
110	0xbfb54e9bd9de333c	-0.0832307249931547
111	0x3fda7ee8474a188a	0.4139958091913135
112	0x3fdeb62d0ce942d4	0.4798691392980292
113	0x3ff999bea84ff79a	1.6000353407575632
114	0xbfd36a9f1e652002	-0.3033826634241451
115	0xbfa115040d7324cf	-0.033363463060206315
116	0xbfdac9f56de2dce6	-0.4185765812976129
117	0xbfd269cf3916266f	-0.2877080972180925
118	0xbfd6c79e5e35c5a4	-0.3559337539691916
119	0xbfd1030f11ea3cbc	-0.2658116984320704
120	0xbfc65bd5dea54449	-0.17467759486547355
121	0xbfdbad5130164654	-0.43245343872067576
122	0x3ffbf3da5db9e964	1.7470344220333454
123	0x3fe31b767a63e9db	0.5971023931918426
124	0xbfc141403dc95a01	-0.13480380074425116
125	0x3fd233a7488c8903	0.2844026764379494
126	0x3ff20417f733ad15	1.1259994179079673
127	0x3fdbf2571f57e5d4	0.43666627941965186
128	0x3ff30f83f756372d	1.191287962111754
129	0x3ff67c48525eaaab	1.405342408902167
130	0x3ff595aceb8f0c97	1.3490418626322815
131	0xbff2894b6e0b0e62	-1.158519201141552
132	0x3fd6d36db2440349	0.3566545716167196
133	0xbfe36d7e5a5790cd	-0.6071159138196208
134	0x3fe61ef15328dca8	0.6912771820269841
135	0xbfd63c5d38d41664	-0.3474343352284903
136	0xbfd6ffab1097c1d9	-0.3593547498740271
137	0x3fe688a12052c8c5	0.7041783934894502
138	0xbfdf64535cafcdd1	-0.4904983906883134
139	0xbfc2bfa7ea613358	-0.146473874514778
140	0x3fe77954bddf279b	0.7335609157973865
141	0xbfc7c8ec1a8d64f1	-0.1858191613817222
142	0xbfebee806fadbe93	-0.8728639775490187
143	0xbfe002eba7375fe0	-0.5003565088218203
144	0x3fa3051705fade95	0.03714820812223
145	0xbfda765c50bcb634	-0.4134741581391126
146	0xbfed58fb558e1994	-0.9171120329854596
147	0xbfd6b08e032d220d	-0.3545260458963931
148	0x3fbdacdb311fc95f	0.1159188265735671
149	0x3feec852f4a00807	0.9619536187967704
150	0xbfe123cdc24ecc90	-0.5356205744814293
151	0x4000000000000000	2.0
152	0x400ccccccccccccd	3.6
153	0x400c000000000000	3.5
154	0xbfdd5b61244383a8	-0.45870235959415107
155	0xbfc9ebf0d2897d44	-0.20251283912782914
156	0xbfdd1976a079708a	-0.45467916175199063
157	0xbfd809cd1414fb50	-0.37559821091774825
158	0xbfde9cf4c3308232	-0.478329840292676
159	0xbfd3a2085bfc09f7	-0.30676468832839937
160	0xbfd13595df88a4d6	-0.26889559583157785
161	0xbfa69a5dfcca95c6	-0.04414647780258067
162	0x3fe844b769144261	0.7583882381750976
163	0x3fe31b767a63e9dc	0.5971023931918427
164	0x3fb0f29be43d7e5b	0.06620191881438002
165	0xbfbd052472b9f1dd	-0.11335971642433358
166	0x3fd982bf0ca8f780	0.3986051200516769
167	0xbfc4eecb90969f1b	-0.1635374504087331
168	0x3fc96c4c24db151b	0.19861747550582085
169	0x3fb1a7c27f6ce524	0.06896606074305517
170	0x3fd4198b8a4e7972	0.3140591478967486
171	0x3fee3306d3117278	0.9437288401055204
172	0x3fd2f8870bd4d0fa	0.2964189162769483
173	0x3ff1458f5fde97bc	1.0794824356939747
174	0x3fd26ec76e220c95	0.2880114150540945
175	0xbfe213cb970dc248	-0.564916415240142
176	0x3fc95513a964aa10	0.19790883799699133
177	0xbff046b748c043b4	-1.01726463716862
178	0xbfe84ec11944e859	-0.7596135610140308
179	0xbfe1cd7e54f33238	-0.5563346537761111
180	0xbff2914cb20a1b9c	-1.1604735331218086
181	0x3fe4470e0ce15065	0.633673691898832
182	0x3fc0c32882c89db2	0.13095575700684275
183	0xbfcfe243b938c873	-0.24909254592927574
184	0xbfe8cac13ca2c3fa	-0.7747503456395173
185	0x3fc76c2f0f9cc6f8	0.1829890085442043
186	0x3fbe2122d684f5ec	0.1176931165436696
187	0xbfb54e9bd9de333c	-0.0832307249931547
188	0x3fda7ee8474a188a	0.4139958091913135
189	0x3fdeb62d0ce942d4	0.4798691392980292
190	0x3ff68b17dca636ba	1.4089583033668718
191	0xbfdd2e590d292667	-0.45595384869793637
192	0xbfc9ebf0d2897d44	-0.20251283912782914
193	0xbfd92d84923bcc41	-0.3934031894743307
194	0xbfd9fe150fb3988e	-0.4061329511008659
195	0xbfddc8e97340c6da	-0.46538769011668324
196	0xbfd73ff4d300a1b8	-0.3632785854884122
197	0xbfd4b1e53eeada69	-0.3233578791072547
198	0xbf9a070bde5bd98e	-0.025417504736617462
199	0x3fe97c374eb57929	0.7964130914004147
200	0x3fd96bb39d44af20	0.39719858511192463
201	0xbfd031d8ffce964c	-0.25304245930815195
202	0x3f9846a977fcc574	0.0237070540890207
203	0x3ffd11c42ff9aebc	1.816837489513019
204	0x3fd331bde7531db7	0.29991099920558945
205	0xbfd2cf61064ca117	-0.2939074098126339
206	0xbf9471f753be9307	-0.019965996252397946
207	0x3fe13ab3cf04cbc3	0.5384158175787593
208	0x3ff0ce3a0ae2f4bc	1.050348322415899
209	0xbfc0078f026b1e46	-0.1252306711014503
210	0x3fead55172decadc	0.8385398143348897
211	0xbfbd814f28368093	-0.115254351918795
212	0xbff6f51fc0ce4f4f	-1.4348447352867486
213	0xbfc6388832fe1f17	-0.1736002205836875
214	0xc002275e7ee3a4cb	-2.269223204919944
215	0xbff7a2d51b33cb6d	-1.4772540152159437
216	0xbff80edd0b4346a4	-1.5036287727311128
217	0xc0010029b40d54a0	-2.1250795427864233
218	0x3fe4470e0ce15065	0.633673691898832
219	0xbff10ce79714a325	-1.065650549086237
220	0x3ff827f51009071f	1.5097551943185363
221	0xbfe9426efd05f51d	-0.7893595640049714
222	0xbff4ee428563572f	-1.308168908164088
223	0xbfed58fb558e1994	-0.9171120329854596
224	0xbff7090a8d80ddc3	-1.439707329509347
225	0xbff5fdd026b0b329	-1.374466086515165
226	0xbfcbb574d47d9278	-0.2164751088668202
227	0xbfdaa3b5d74f66ba	-0.4162420847547811
228	0x3ffb333333333333	1.7
229	0x400e666666666666	3.8
230	0x4014000000000000	5.0
231	0xbfdd2b9e6118097a	-0.45578727227998395
232	0xbfc9ebf0d2897d45	-0.20251283912782916
233	0xbfdc775f57d870da	-0.4447859151712358
234	0xbfd8b03d6fac75a0	-0.3857568350375349
235	0xbfdf46452a317b79	-0.48866395111502176
236	0xbfd46ce29c0d53eb	-0.31914582480868486
237	0xbfd1541877d15150	-0.2707577867597779
238	0xbfa3d275f25a5ba4	-0.03871506293687979
239	0x3ff5429aeec33c13	1.328761036554856
240	0x3fe9811326257c26	0.7970062012717605
241	0x3fabd770ae264214	0.05437805295798995
242	0x3fdc103bc2ca9b47	0.4384908106098248
243	0x3fec70b275069d0c	0.8887569699917619
244	0x3fdb75dcd51ebe42	0.4290687638522038
245	0x3fcee8195d40159f	0.24145810178030744
246	0x3fdcf7b18cc76f67	0.45261801479295233
247	0x3fe1e755355c20f8	0.5594888727364653
248	0x3fd12a4e434e0e93	0.2682071358942519
249	0x3ff0a1139976ba04	1.0393253321341271
250	0x3fe5b1733f9fdd1f	0.6779114000954997
251	0x3fea6c208730cec7	0.8256991043512806
252	0x3fc47ba95c4fd55a	0.16002385146536363
253	0x3fe82a5f5cfe35f1	0.7551724258680094
254	0xbfe0b1bf62304d6b	-0.5216977041003877
255	0xbfba0e05f47e432a	-0.10177647799561088
