models/Both/Data/Playerinputs20_21.npy (npy, 197248 bytes, 1 tensors)

array f8 [320, 77]
00000000: ff0e 2406 1eae dabf 457d 89d2 f0eb c9bf
00000010: 0d43 0626 dc0b af3f cbeb 74f7 061a d5bf
00000020: 0a0d 1a60 bab3 ddbf 66d6 59e3 4cf6 d3bf
00000030: d90c c543 9e99 b9bf b9c4 9d89 4d4d bcbf
00000040: 09de 68cf 8855 e43f c386 1018 c436 b73f
00000050: 1361 c20e 2d3b e73f 51b7 377e c706 d53f
00000060: 3641 7f64 e7ee e03f 4663 744d 258f d83f
00000070: 5de8 9909 1d37 bc3f 04ee a386 03dd c1bf
00000080: 620e 0b6e 4b89 f2bf 7c2f bdb6 8b65 60bf
00000090: 70e8 d906 84b5 f2bf af21 d0b2 7b68 e43f
000000a0: cc7c 361d 457f edbf 169e 1e8e 26ad edbf
000000b0: bfa2 3ebb 51a3 f1bf e20e 72cf c0b3 e5bf
000000c0: 6e05 209e 9222 ecbf f1e7 1e34 4f9d dbbf
000000d0: 6a4b c4d0 bbc5 e8bf 60c8 5490 a374 f4bf
000000e0: a9e6 d9da 10e0 e9bf faa6 fb9a cac9 613f
000000f0: 8a55 777f c57e e53f 57f0 1374 51cc de3f
00000100: 87ab 9705 a270 f23f de10 7c2c 8012 c83f
00000110: 8918 4a47 e87e da3f a66a b3f0 d035 edbf
00000120: e2bc b164 9f2b eebf c52f 6e6d 300c dbbf
00000130: 467d 89d2 f0eb c9bf d2c6 18fb 5528 cabf
00000140: dfaa dd33 fae0 d9bf ef2a 0a3f 8a44 e0bf
00000150: a666 eae1 34f7 d6bf 3668 6e36 a7a6 d2bf
00000160: 3890 7dcd 9e68 a7bf 6a32 88d2 e310 c83f
00000170: 467d 89d2 f0eb c9bf 2f69 0915 a0e0 af3f
00000180: 9fc0 3a12 12c6 bc3f cd08 1640 0f29 d33f
00000190: 17fe d560 24a5 93bf 563b a6b5 5f01 94bf
000001a0: ef10 fad2 c3b2 74bf 8ae7 9620 4c53 f1bf
000001b0: bcf4 e20a 3ace f03f 76f8 b073 e634 f7bf
000001c0: e230 16b3 0233 f33f 9529 a75c 6933 f5bf
000001d0: c473 7c43 517a f3bf 52cf 0479 2b9c f4bf
000001e0: cf94 b15a 3808 f4bf 6dcb 331b d5a2 f7bf
000001f0: 5dfb 5f06 3f75 f0bf 6eb1 b860 1e66 e0bf
00000200: 508f 9513 85d3 f8bf ae38 6da4 fc9f f0bf
00000210: afa6 fb9a cac9 613f 08dc 9a8f 25c3 f0bf
00000220: 8621 811e 4bc6 e6bf d47a bdfa d694 d9bf
00000230: 4726 4c0e 2eb5 ecbf 9c29 f0c7 e338 f1bf
00000240: 9e00 b257 cb2b e83f 64b4 1877 efbf e5bf
00000250: 6666 6666 6666 f63f 0000 0000 0000 1240
00000260: 0000 0000 0000 2040 6444 eca9 ea6c dcbf
00000270: 467d 89d2 f0eb c9bf eaec 5e87 08c0 c7bf
00000280: 1ccf effd ae0e dabf e57b 59bc b9f4 debf
00000290: 556d 1f17 3f41 d5bf 958d aae6 8c1b cbbf
000002a0: 39ce e820 c49c b1bf ff4d e96a 1a58 fb3f
000002b0: 710e e7d1 afe6 ef3f 5646 8932 a2b6 dd3f
000002c0: e3a3 2a8d 17a6 eb3f d688 9357 cba9 f33f
000002d0: 9d14 eb5f 6566 e93f 8392 12d7 b0ad f13f
000002e0: 70a2 477f 843e bb3f 0ae0 ee16 d105 dbbf
000002f0: 8ae7 9620 4c53 f1bf 84e7 279c 2973 cfbf
00000300: 1ac3 c600 6548 e7bf b144 ac45 06f7 f73f
00000310: 1e34 02a7 5085 d33f d9c1 9710 abff d6bf
00000320: 7124 61ff b7c7 f2bf 3122 6715 99a6 d9bf
00000330: db81 a3ca 6e1b f3bf 6511 c061 4c3c e2bf
00000340: 3bce 491a fc5f ddbf 6c5a c4ed 618f f53f
00000350: afa6 fb9a cac9 613f 1841 885d 7f38 dcbf
00000360: 36b6 bc50 5c76 dabf d47a bdfa d694 d9bf
00000370: 0d22 2d03 8eb0 d6bf b467 745d f550 c7bf
00000380: be08 85ed c756 f5bf 37b6 63de c1f9 f5bf
00000390: 2d11 52d6 77d0 dabf 457d 89d2 f0eb c9bf
000003a0: 37ae 5ef3 eb36 c9bf 0578 c527 4208 d4bf
000003b0: 9c2a 3f11 3d57 debf eb53 0d9c e26c d4bf
000003c0: d7f5 c2d6 04bc d0bf bb41 ff2a f1f7 a4bf
000003d0: a06f 67f7 55bd c33f 467d 89d2 f0eb c9bf
000003e0: 35ae 5ef3 eb36 c9bf 4ff1 53b0 1a52 c8bf
000003f0: 0779 2bda 6b77 e43f 05cd 69ab 0271 b9bf
00000400: 89b4 882f a1dc bdbf b0fd dbc9 17ef 9fbf
00000410: 8ae7 9620 4c53 f1bf 7279 4e8a 8b19 d43f
00000420: 76f8 b073 e634 f7bf 1ac3 c600 6548 e7bf
00000430: 9529 a75c 6933 f5bf da2a 203e ee6f fabf
00000440: c0a2 3ebb 51a3 f1bf 9441 b14b d008 d4bf
00000450: 9e75 8ff7 f7c3 f4bf 119e 16f9 e0d1 bb3f
00000460: bbee 7442 2064 d23f 6550 e10c 0e47 e43f
00000470: 8d7c e6f9 be17 f13f afa6 fb9a cac9 613f
00000480: 94fb 529a 7560 dbbf faf3 510a b428 f0bf
00000490: 9419 8e55 fb58 edbf a75b f187 ba06 e4bf
000004a0: 0c5a bc29 2cbc debf 7892 7dd4 74b5 cbbf
000004b0: 3441 b2fb 217c debf 3333 3333 3333 0140
000004c0: cdcc cccc cccc 0c40 9a99 9999 9999 0940
000004d0: 98dd e0f2 ed6b dbbf 457d 89d2 f0eb c9bf
000004e0: 5b2a 06fc 80c1 c6bf ee8d c6ff 9c6a d6bf
000004f0: ac1a abed 0b96 debf 88f4 b859 c56c d6bf
00000500: 9550 9c16 a160 c9bf 2294 ad59 feec abbf
00000510: 064a 7744 3b4e f13f 6b41 0649 50d1 df3f
00000520: 761b cd9b 51f0 da3f 5468 aef9 a7d6 ec3f
00000530: cac3 0abc ecb3 ec3f 0234 436b 6981 ee3f
00000540: bc33 f100 b8d1 ef3f d61e 48fa e3d6 eb3f
00000550: 0ae0 ee16 d105 dbbf 5103 2972 e46b d1bf
00000560: 6073 196b 83a3 b0bf 6158 f21a 626f d7bf
00000570: a8dc 2853 f11e e63f 10fa bc58 671f c93f
00000580: b268 0b95 f70d d1bf 5222 5202 d189 d6bf
00000590: 70bf 2178 5270 a83f b4dd 3d8b 490a cebf
000005a0: 0c44 27e6 2d9f d8bf ef3b e796 a2cc ebbf
000005b0: 6c5a c4ed 618f f53f e25f 37a7 eb02 e0bf
000005c0: 1841 885d 7f38 dcbf 36b6 bc50 5c76 dabf
000005d0: d47a bdfa d694 d9bf 0d22 2d03 8eb0 d6bf
000005e0: b467 745d f550 c7bf be08 85ed c756 f5bf
000005f0: 3695 5683 2367 debf 2215 c1da 18cc dcbf
00000600: 457d 89d2 f0eb c9bf 9e9a fd77 a705 dcbf
00000610: 3a0f e08c 9def d5bf e763 7557 2b5f dfbf
00000620: 60d5 5357 f7bc cfbf 046d 3993 f833 cebf
00000630: 3fe2 e482 f183 a3bf d37b 7792 da84 f93f
00000640: 710e e7d1 afe6 ef3f 67c0 877a 311f c93f
00000650: 187c 946e 9837 e23f d4ba 67ed a6a3 ef3f
00000660: d1e5 571f 57f2 db3f 1f8f e7a7 9ff6 c2bf
00000670: cb03 b30b 6185 a6bf 5103 2972 e46b d1bf
00000680: 620e 0b6e 4b89 f2bf c1a2 ca15 8d7e 73bf
00000690: 583d cbca 403b ce3f cc7c 361d 457f edbf
000006a0: 6416 d438 5d3c d6bf 171f fe32 8838 c6bf
000006b0: 7124 61ff b7c7 f2bf 8992 a0f5 e36f e5bf
000006c0: 7cda d163 aa74 f2bf 202f 3e15 e013 edbf
000006d0: fe74 a613 c16d e7bf 1e20 3d40 d481 e33f
000006e0: 1f07 0910 f527 f83f 08dc 9a8f 25c3 f0bf
000006f0: 8621 811e 4bc6 e6bf 9419 8e55 fb58 edbf
00000700: a75b f187 ba06 e4bf b467 745d f550 c7bf
00000710: d05b 9fae 5698 f13f 61f2 fbfe fb0b e0bf
00000720: 0000 0000 0000 fc3f 6666 6666 6666 0e40
00000730: 0000 0000 0000 1240 808a fd2f d846 dcbf
00000740: 457d 89d2 f0eb c9bf 36fe f045 8c73 c4bf
00000750: 42c2 bee7 2979 d7bf e86b c123 b03b dfbf
00000760: f113 09b2 c193 d6bf 524e 091e 5c2a c6bf
00000770: 1c52 4586 9e4c a0bf a257 c6c9 8507 f33f
00000780: a710 1b65 71af dd3f 8d67 5aa9 0d55 d83f
00000790: a0a4 7640 efb1 f43f 7b0f 1f0e b196 e83f
000007a0: 6a52 fae7 cb73 f53f e091 77ac 1a7a ed3f
000007b0: b393 0024 8389 e73f 4454 acfb 775d e5bf
000007c0: 2146 72e6 7e5b e1bf 70a2 ca15 8d7e 73bf
000007d0: ab07 f773 6dff e5bf a8dc 2853 f11e e63f
000007e0: d668 d120 af7a f03f bfdb e468 3309 d3bf
000007f0: d85c 7647 d552 09bf 8203 02f1 c4d8 dd3f
-0.41687727546398884 -0.20251283912782916 0.06063735927739886 -0.3297135750360069 -0.4640947283262028 -0.31190797998656306 -0.10000027803930624 -0.11055454835674795
0.6354412127465717 0.09067941272271711 0.725973633600946 0.32853877378407953 0.5291630709489599 0.3837369209664313 0.11021596416858999 -0.13955730509029263
-1.158519201141552 -0.0020015457902555194 -1.1693153636574856 0.6377542965356521 -0.921785885864574 -0.9273865485928947 -1.1023728670353845 -0.678192525069303
-0.8792203033810162 -0.43147640314020835 -0.7741374089695061 -1.278476299089128 -0.8086017870366123 0.0021714169632688326 0.6717250337193701 0.4812205918858629
1.1524982660727987 0.18806459591008368 0.41399580919131346 -0.9128193570316696 -0.9428250281033821 -0.422618967881814 -0.2025128391278292 -0.20435595284066338
-0.40435652794864824 -0.5083667021984563 -0.35883829176018833 -0.2914217025332876 -0.04572006472042783 0.18801543979533913 -0.2025128391278292 0.06226063019558336
0.11239731736236756 0.2993810773697419 -0.01918465462722282 -0.019536490880962397 -0.005053296030045325 -1.0828362725282852 1.050348322415899 -1.4504150885764182
1.199953746373517 -1.3250516528374636 -1.217362655275097 -1.288127396325724 -1.2520068686219934 -1.4772540152159437 -1.0286245583553957 -0.5124656571474995
-1.5516405835159794 -1.039059297839724 0.0021714169632688 -1.047643242794722 -0.711705741480771 -0.3997094582208949 -0.8971166877028701 -1.0763891038974185
0.7553459847258812 -0.6796796156028333 1.4 4.5 8.0 -0.44414774507555976 -0.2025128391278292 -0.18554789171125857
-0.4071462135172952 -0.4836868609763186 -0.33210732706148366 -0.2117782713222424 -0.068798311266442 1.709009568808028 0.9969100093516784 0.4642720693128458
0.8640249020728529 1.2289536877583962 0.7937495110897036 1.1049049760123644 0.10642269236962831 -0.4222300266224016 -1.0828362725282852 -0.245701981780993
-0.7275872244991632 1.497808715972763 0.3050119048064647 -0.3593547498740271 -1.1737594581375357 -0.4007933339130743 -1.1941974559377886 -0.5698606404480812
-0.4589834458085737 1.3475055015348074 0.0021714169632688 -0.4409483350182355 -0.4134741581391127 -0.3997094582208949 -0.3545260458963931 -0.1821581560441793
-1.3336867597686672 -1.37347590323351 -0.4189738839125024 -0.20251283912782916 -0.19698857672971012 -0.3130040539161885 -0.47407461818935714 -0.31914582480868486
-0.26147576306160886 -0.04095414781443504 0.15421557026172383 -0.2025128391278292 -0.19698857672971007 -0.1900056229568556 0.6395777951363762 -0.09938065228361743
-0.11664779100893176 -0.031185504622951832 -1.0828362725282852 0.3140591478967486 -1.4504150885764182 -0.7275872244991632 -1.3250516528374636 -1.6523268152984003
-1.1023728670353847 -0.3130379428085004 -1.2978439016654657 0.1086712463498929 0.2873612069122193 0.633673691898832 1.068297363446422 0.0021714169632688
-0.4277624136993208 -1.0099373248224297 -0.9171120329854596 -0.6258213667996316 -0.4802351386619257 -0.2164751088668202 -0.4763264615985634 2.15
3.6 3.2 -0.4284624931201164 -0.20251283912782916 -0.1777802687250468 -0.3502571580704331 -0.4779081173877937 -0.35038884889565525
-0.1982613907245009 -0.054542492339159546 1.081599490590294 0.4971504891518836 0.4209178945060822 0.9012031437480439 0.8969634697624482 0.9532973380061096
0.9943504351045855 0.8699817550959448 -0.4222300266224016 -0.2722102274747629 -0.06499501576167921 -0.3661732924605357 0.6912771820269841 0.19627086480063882
-0.2664774852288573 -0.35216164805072936 0.047731949963121134 -0.2346889428988398 -0.3847155330268499 -0.8687298724488509 1.3475055015348074 -0.5003565088218205
-0.4409483350182355 -0.4134741581391127 -0.3997094582208949 -0.3545260458963931 -0.1821581560441793 -1.3336867597686672 -0.4750450880622624 -0.44995709765164993
-0.20251283912782916 -0.4378451034339522 -0.342749965260953 -0.4901836732947786 -0.24795429004704328 -0.23596102894484983 -0.03811602328136531 1.5949350091320766
0.9969100093516784 0.1962644432346707 0.569286552406882 0.9887270581073957 0.4366662794196517 -0.14815135668242704 -0.04398635165990291 -0.2722102274747629
-1.158519201141552 -0.004759360421908 0.236183260937177 -0.921785885864574 -0.3474343352284903 -0.1736002205836875 -1.1737594581375357 -0.6699085042387917
-1.1534828089912983 -0.9086761870289344 -0.7321477302354251 0.6095982794440749 1.5097551943185363 -1.047643242794722 -0.711705741480771 -0.9171120329854596
-0.6258213667996316 -0.1821581560441793 1.0996920415106963 -0.5014629345092311 1.75 3.8 4.5 -0.4418240040451238
-0.20251283912782916 -0.15977624335390467 -0.36677024489748444 -0.48801806918862534 -0.3527683485629601 -0.1731677195226547 -0.0318345583824888 1.1893365747286926
0.4638331878052306 0.38019124544518307 1.293441058931684 0.7683949733550287 1.340770631945953 0.9211552971360639 0.7355361655396478 -0.6676597514621183
-0.5424189091592703 -0.004759360421907929 -0.6874301209393158 0.6912771820269841 1.0299521715119702 -0.2974365734439139 -4.83008706694766e-05 0.4663555482475702
