models/Both/Data/Playerinputs21_22.npy (npy, 196016 bytes, 1 tensors)

array f8 [318, 77]
-0.4516169126733898 -0.20251283912782916 -0.23896642852673516 -0.39878750814927155 -0.5087459942046644 -0.30897560555702175 -0.22664767047616194 -0.06818900216088054
0.2640651462459736 -0.2025128391278292 0.5194501099759993 0.38742671963426145 0.3038573499719344 0.018802923210016757 0.8580664817074517 0.49786817730009253
-1.158519201141552 -0.2722102274747629 -1.0890011565377906 -0.1252306711014506 -1.3250516528374636 -1.217362655275097 -0.9166183377450452 -0.2347905323240426
-0.4904983906883134 0.3638163672145639 -0.0644144971881199 -1.0053120146622765 0.7093154716184982 -0.5003565088218203 -0.4409483350182355 -0.1152425747974541
0.1176931165436696 -0.0832307249931547 0.4139958091913135 -0.3618656661759656 -0.2519681127365392 -0.4499570976516499 -0.20251283912782916 -0.3607710148885947
-0.40899392733549 -0.46617206285462215 -0.3686703707298268 -0.2203443726460453 -0.07375122172602347 1.0625870639776354 0.3971985851119247 0.09379093914595686
0.31486195877425044 1.437846409194049 0.1403631722891833 0.05926970467264883 -0.06584522735914822 0.5384158175787593 -0.4222300266224016 -0.968529845858248
0.5975971929758044 -0.5185201188916846 -0.7823984952517936 -1.1023728670353847 -1.0955120476530775 -1.3875489584407046 -1.118196781637674 -2.1824745260870047
0.9068379763256834 0.2373207619928944 0.0021714169632688 -0.8410162997629215 -0.711705741480771 -0.9171120329854596 -1.439707329509347 -0.1821581560441793
-0.8439501456747067 -0.2613077957404668 2.45 3.3 2.9 -0.41427107468423907 -0.20251283912782916 -0.20696691855031443
-0.3710424720855856 -0.4480765137570903 -0.2691790954418184 -0.24096622956385633 -0.055676026401066045 1.0055497841396597 0.39719858511192463 0.5076262441196093
0.3995208464442632 0.6515145220755564 0.2809172102869697 0.5372085897611683 0.11296374766837214 -0.42223002662240167 -0.677523250001524 -0.9685298458582481
-0.667351569159392 -0.5185201188916846 -0.9998805752634452 -0.8237410730998755 -0.5869038795041025 -0.26623574875021566 -0.1600454234969414 -0.5559747573914888
-0.4589834458085737 0.041210284049861934 -0.5003565088218203 -0.4409483350182355 -0.1152425747974541 0.1176931165436696 -0.0832307249931547 0.4139958091913135
-0.3618656661759656 -0.5666900387090565 -0.4462391120029522 -0.20251283912782916 -0.2833115559005105 -0.39007333783717585 -0.48635397340179165 -0.3686703707298268
-0.263401953090572 -0.07862820325614946 0.45418941237255983 -0.00260903104791126 -0.06386060560591074 0.07656286755495464 1.4169571370504837 0.19354578126131872
-0.11204711185242812 -0.06093597600779241 -0.2722102274747629 0.3140591478967486 -0.968529845858248 0.3566545716167194 -0.921785885864574 -1.217362655275097
-1.1023728670353847 -1.2520068686219934 -1.2978439016654657 -1.2104833147163847 -1.1049300008954392 -1.0053120146622765 -0.3144477013722477 1.0072272685334471
-1.047643242794722 -1.308168908164088 -1.175813320367742 -0.8971166877028701 -1.0763891038974185 -0.4996040888898916 -0.0765076079570809 1.95
3.6 3.8 -0.44129339498668635 -0.20251283912782916 -0.08630559363590345 -0.3919273898956449 -0.4723081336667808 -0.24151961023646343
-0.21126819044066025 0.012649364869080621 0.5175641677480884 0.19729477703200674 0.35917103947826734 0.924346225915331 0.7728712459572212 0.5607590336879675
0.5671733687295841 0.008573587974704595 -0.4222300266224016 0.2682071358942519 -0.6472730173794681 0.3566545716167195 0.28801141505409456 0.01503579812426253
-0.359354749874027 0.23469393058270377 -0.25128490595434255 0.4027214742967655 0.09604459591028039 -0.3679286843329565 1.252220184568136 -0.6678658174168501
-0.44094833501823544 -0.1152425747974541 0.1176931165436696 -0.0832307249931547 0.41399580919131346 -0.3618656661759656 -0.15566274654363085 -0.4356885123770426
-0.20251283912782916 -0.37674360560687603 -0.37238061960341295 -0.4741226094160864 -0.2560183197282819 -0.2887334526948037 -0.029533652639433063 0.4034896080721368
-0.0026090310479112405 0.09116341340009237 0.6991864329587536 0.8803017884098426 0.4138737327173081 -0.1464841326189769 0.011136413449515395 -0.5424189091592703
0.06862942305703185 -0.486644603140078 0.03539774313793937 -0.5185201188916845 -0.2024462818873892 -0.4212729263041401 -0.10437818151661314 -0.5204000762800599
-1.3715323626380562 -0.018745370690882945 -0.27687392285733936 -0.17484363232805533 0.002171416963268826 -1.150956714310622 -0.711705741480771 -0.3997094582208949
-0.89711668770287 -0.4802351386619257 0.3344785819888838 -0.17453681283191297 2.05 3.5 3.6 -0.41964363383355546
-0.20251283912782916 -0.08175774369068052 -0.3744559316984799 -0.4411812028595399 -0.21568071671238934 -0.2078792573029269 0.013972446780577918 1.0499121129025297
0.5971023931918426 0.3617985652241318 0.8885117761079181 0.9549063317797185 0.6088766322818043 0.4765480913171025 -0.0547715231106817 -0.17680030178268485
-0.5424189091592703 -0.5268017066999255 -0.5268017066999257 0.8256991043512806 0.015035798124262522 -0.359354749874027 0.1303640499367601 -0.07187479240386431
00000000: 312c 909f 4ae7 dcbf 457d 89d2 f0eb c9bf
00000010: b69f aeb1 7396 cebf 307c 630a bc85 d9bf
00000020: ae8f e2ad a547 e0bf e244 489e 41c6 d3bf
00000030: 0f71 3476 ca02 cdbf b954 3a9e d574 b1bf
00000040: 59f4 c87f 71e6 d03f 467d 89d2 f0eb c9bf
00000050: 4304 48d6 559f e03f e63e 9b70 99cb d83f
00000060: f9d5 3119 6672 d33f e15e 06d1 1241 933f
00000070: f045 97d6 4775 eb3f 1346 ce7c 12dd df3f
00000080: 620e 0b6e 4b89 f2bf 5103 2972 e46b d1bf
00000090: 012d 0a7a 8c6c f1bf 511e 6b02 8f07 c0bf
000000a0: 9529 a75c 6933 f5bf c473 7c43 517a f3bf
000000b0: 5aec f0fa ef54 edbf 3500 dfbc 9d0d cebf
000000c0: d1cd af5c 5364 dfbf b6e8 bb71 c448 d73f
000000d0: aaae cfee 777d b0bf 6f01 140d c215 f0bf
000000e0: 98be 245c b6b2 e63f e05f 37a7 eb02 e0bf
000000f0: 1841 885d 7f38 dcbf 6da5 dc91 8980 bdbf
00000100: ecf5 84d6 2221 be3f 3c33 ded9 9b4e b5bf
00000110: 8a18 4a47 e87e da3f 7c58 719c ce28 d7bf
00000120: 54a6 f5dc 3e20 d0bf 2115 c1da 18cc dcbf
00000130: 457d 89d2 f0eb c9bf bba3 924f df16 d7bf
00000140: 32c9 8add f42c dabf cf3e 1159 c3d5 ddbf
00000150: ba7b 529c 4b98 d7bf dbaa 2f91 3e34 ccbf
00000160: e272 5a2d 5ce1 b2bf 54fc 0e4b 5b00 f13f
00000170: 21af 449d b36b d93f c302 4bd8 ae02 b83f
00000180: 6b27 ecc5 b226 d43f 358d 823c 6b01 f73f
00000190: d5bd 45a1 6bf7 c13f 94da 6c46 9958 ae3f
000001a0: 18f0 1a9a 3bdb b0bf c3cb 04cf b33a e13f
000001b0: 0ae0 ee16 d105 dbbf b327 a54d 32fe eebf
000001c0: 3e66 0026 841f e33f 70a6 1e81 b797 e0bf
000001d0: 5d79 b191 6809 e9bf c0a2 3ebb 51a3 f1bf
000001e0: 11b4 10a4 3787 f1bf 85a0 6189 6633 f6bf
000001f0: 2d05 fa4e 22e4 f1bf 9d2c 4f34 b575 01c0
00000200: 45de 6213 d104 ed3f 8bec b5d7 8660 ce3f
00000210: afa6 fb9a cac9 613f 4d4f dc03 9be9 eabf
00000220: 8621 811e 4bc6 e6bf 9419 8e55 fb58 edbf
00000230: c3dd 808d 0a09 f7bf b467 745d f550 c7bf
00000240: da12 64bc a301 ebbf 304a 3955 44b9 d0bf
00000250: 9a99 9999 9999 0340 6666 6666 6666 0a40
00000260: 3333 3333 3333 0740 28a5 5cd3 6a83 dabf
00000270: 457d 89d2 f0eb c9bf ff84 4359 e47d cabf
00000280: 9c36 c2ec 28bf d7bf 3b50 2c1d 49ad dcbf
00000290: 5220 ecf4 3a3a d1bf 8666 b53d fbd7 cebf
000002a0: deab 2071 9181 acbf 3e13 d65e bb16 f03f
000002b0: 20af 449d b36b d93f 9ab8 a264 793e e03f
000002c0: 2418 63e2 bf91 d93f eddf a5fb 34d9 e43f
000002d0: d03a c42d 8cfa d13f a6f1 8411 d030 e13f
000002e0: 7887 de31 31eb bc3f 0be0 ee16 d105 dbbf
000002f0: 5e28 213d 45ae e5bf b427 a54d 32fe eebf
00000300: f329 8fad f15a e5bf 70a6 1e81 b797 e0bf
00000310: 7230 558c 05ff efbf c8bf 2a3d 165c eabf
00000320: 5db3 0ba5 eac7 e2bf c120 7aaa 010a d1bf
00000330: 549c e551 5e7c c4bf 3ebc 0c93 8bca e1bf
00000340: 3bce 491a fc5f ddbf d08c 81ac 8319 a53f
00000350: e05f 37a7 eb02 e0bf 1841 885d 7f38 dcbf
00000360: 6da5 dc91 8980 bdbf ecf5 84d6 2221 be3f
00000370: 3c33 ded9 9b4e b5bf 8a18 4a47 e87e da3f
00000380: 7c58 719c ce28 d7bf 0e2e e725 5322 e2bf
00000390: b2eb 0f7e 2e8f dcbf 457d 89d2 f0eb c9bf
000003a0: fafa caca c621 d2bf bb57 4329 f6f6 d8bf
000003b0: 1495 826a 6c20 dfbf ba7b 529c 4b98 d7bf
000003c0: 847f 8edd 93db d0bf 6545 8759 fa20 b4bf
000003d0: 3418 1578 7011 dd3f 6906 cde0 885f 65bf
000003e0: 1d84 942c 2b59 b0bf e68b 3cc4 9f99 b33f
000003f0: 2b73 373f dbab f63f b4e7 65b0 1bc6 c83f
00000400: 7976 0499 1eaf bcbf ece4 3410 0033 afbf
00000410: 5103 2972 e46b d1bf 7279 4e8a 8b19 d43f
00000420: b327 a54d 32fe eebf 4503 44b2 6dd3 d63f
00000430: cc7c 361d 457f edbf c473 7c43 517a f3bf
00000440: c0a2 3ebb 51a3 f1bf cf94 b15a 3808 f4bf
00000450: 9e75 8ff7 f7c3 f4bf 01f8 90c0 235e f3bf
00000460: 4e71 a314 cbad f1bf 6f01 140d c215 f0bf
00000470: 2f8e 6c40 e91f d4bf 5bd9 1f57 9a1d f03f
00000480: 08dc 9a8f 25c3 f0bf 2f57 6385 42ee f4bf
00000490: d5e3 d2a0 21d0 f2bf 4726 4c0e 2eb5 ecbf
000004a0: 9c29 f0c7 e338 f1bf b0b7 ae6d 83f9 dfbf
000004b0: 5923 12aa 0096 b3bf 3333 3333 3333 ff3f
000004c0: cdcc cccc cccc 0c40 6666 6666 6666 0e40
000004d0: f726 daa6 263e dcbf 457d 89d2 f0eb c9bf
000004e0: 44c9 2096 1f18 b6bf 368a 809e 5615 d9bf
000004f0: a2f3 eee4 4b3a debf a175 a755 1dea cebf
00000500: a459 5008 d60a cbbf 7748 6c03 e9e7 893f
00000510: 68e7 c1ba e28f e03f 1515 838b f440 c93f
00000520: daaf 0e87 a8fc d63f 9298 4f89 3e94 ed3f
00000530: 11f6 ac7a 5cbb e83f 540b d4ed bcf1 e13f
00000540: 0062 bbc3 4826 e23f e495 af7f 078f 813f
00000550: 0ae0 ee16 d105 dbbf 930e 4e43 4e2a d13f
00000560: 3a4c 27e7 75b6 e4bf 4703 44b2 6dd3 d63f
00000570: 960c 226e c76e d23f 5e27 b4a9 16cb 8e3f
00000580: d7c1 9710 abff d6bf 6e11 3662 730a ce3f
00000590: 7d59 4349 0d15 d0bf c818 604a 30c6 d93f
000005a0: 8a66 64ee 6096 b83f 4f1a 9ec0 248c d7bf
000005b0: 97c7 4108 1809 f43f 647e 7d22 285f e5bf
000005c0: 1741 885d 7f38 dcbf 6da5 dc91 8980 bdbf
000005d0: ecf5 84d6 2221 be3f 3c33 ded9 9b4e b5bf
000005e0: 8918 4a47 e87e da3f 7c58 719c ce28 d7bf
000005f0: 9f22 cec2 c1ec c3bf 1bbf f911 52e2 dbbf
00000600: 457d 89d2 f0eb c9bf 00c1 4336 911c d8bf
00000610: 9418 b785 15d5 d7bf 181f 6f5b 0658 debf
00000620: db3a 9aa9 9a62 d0bf 4b76 25e0 9b7a d2bf
00000630: 1a04 dfe0 113e 9ebf 1b86 bc13 c6d2 d93f
00000640: 3c06 cde0 885f 65bf e826 2547 7c56 b73f
00000650: faab eb39 bc5f e63f 2994 faa7 6e2b ec3f
00000660: 246f ac40 e87c da3f 959f 7df7 fdbf c2bf
00000670: a8b4 7b1c b0ce 863f 2146 72e6 7e5b e1bf
00000680: ccc3 92a7 b291 b13f f9bc d067 2f25 dfbf
00000690: 8962 422a a71f a23f 6fa6 1e81 b797 e0bf
000006a0: e399 f37f c2e9 c9bf efa7 4ab8 22f6 dabf
000006b0: 4fa1 074c 87b8 babf 2fae 8e0f 1ea7 e0bf
000006c0: 1efa 2eeb cbf1 f5bf 9063 4688 fc31 93bf
000006d0: 6466 f266 4db8 d1bf f0a4 61b1 4661 c6bf
000006e0: eba6 fb9a cac9 613f 3836 7196 516a f2bf
000006f0: 8621 811e 4bc6 e6bf d47a bdfa d694 d9bf
00000700: 4626 4c0e 2eb5 ecbf 0c5a bc29 2cbc debf
00000710: 94b3 b6da 1868 d53f 6ad3 87e7 3857 c6bf
00000720: 6666 6666 6666 0040 0000 0000 0000 0c40
00000730: cdcc cccc cccc 0c40 c58a d2f8 70db dabf
00000740: 457d 89d2 f0eb c9bf 15a2 5853 13ee b4bf
00000750: 280b 1c03 16f7 d7bf 0c11 7915 503c dcbf
00000760: b12a 54fc 6c9b cbbf e800 d199 c99b cabf
00000770: 66d0 bd0f 969d 8c3f 3373 c9a4 70cc f03f
00000780: dbe9 637a 761b e33f d026 582b b527 d73f
00000790: fbd1 8f3f b06e ec3f 4797 37b9 978e ee3f
000007a0: f15d ded8 ea7b e33f 4067 cb90 c37f de3f
000007b0: 9464 0659 030b acbf 162f 0a6d 64a1 c6bf
000007c0: 2146 72e6 7e5b e1bf ec19 b840 8fdb e0bf
000007d0: ed19 b840 8fdb e0bf c7ce 3087 206c ea3f
000007e0: 5927 b4a9 16cb 8e3f d7c1 9710 abff d6bf
000007f0: 2cb8 86e9 c4af c03f f108 c8ea 6266 b2bf
