models/Layer_2/Data/Playerinputs22_23_NH.npy (npy, 91688 bytes, 1 tensors)

array f8 [327, 35]
000000 58 61 70 71 12 79 d9 bf 46 7d 89 d2 f0 eb c9 bf
       -0.3980146510889617 -0.2025128391278292
000010 aa b3 d1 0a d3 96 b7 bf ac 63 3c 4e 08 fa d1 bf
       -0.09214514745845173 -0.2808857692739888
000020 cc d1 b2 93 9e 45 dc bf dd 1c 7e 55 65 c3 d4 bf
       -0.44174923347170814 -0.3244260153664536
000030 1c 01 fe 48 56 c4 b6 bf 82 0b f2 39 f3 d7 e9 bf
       -0.08893336565052262 -0.8076110965488257
000040 54 fc 0e 4b 5b 00 f1 3f 27 7c 25 26 13 81 e9 3f
       1.0625870639776354 0.7970062012717606
000050 96 61 72 63 39 a6 e3 3f 8f 29 50 23 87 be f3 3f
       0.6140410368271201 1.2340155963343908
000060 5a 5e 79 95 2c 89 f0 3f fa 35 ac bc c7 bf 02 40
       1.0334897841293214 2.343642686849077
000070 d7 b4 ca d4 d1 23 06 40 47 70 3d 60 b6 96 f0 3f
       2.7674900650368772 1.0367950209975036
000080 3f 28 74 70 7a 50 d7 bf 7f e7 17 da 24 92 c6 bf
       -0.3642870042973562 -0.1763349594983161
000090 90 8c b9 c1 8c 64 d9 bf 57 8b 0c 30 ce 94 d6 bf
       -0.3967620746463547 -0.3528323621014144
0000a0 92 a2 56 b6 d4 4e dc bf 78 91 0b 64 73 b0 d4 bf
       -0.44231145674215455 -0.32326969881093914
0000b0 43 0c 9b d8 c9 e1 d2 bf f4 f3 91 1f 95 5f 91 bf
       -0.2950310340203865 -0.016966180850875603
0000c0 b2 bd 67 73 8a 27 ea 3f 48 85 73 4f 0f 82 e1 3f
       0.8173267606743393 0.547126441171863
0000d0 45 05 83 0b 5e a6 c6 3f ce 1c d5 41 ca 3b e9 3f
       0.176952129002567 0.7885485921659894
0000e0 40 a2 05 eb 1f 85 f3 3f c8 89 5e 60 4b aa e4 3f
       1.2200011425540112 0.6457878954136556
0000f0 64 45 a5 64 02 a8 dc 3f 4f 8b fc ce 04 d1 c6 bf
       0.44775447682066827 -0.17825374705088357
000100 ae 47 e1 7a 14 ae fb 3f cd cc cc cc cc cc 10 40
       1.73 4.2
000110 cd cc cc cc cc cc 10 40 27 93 89 58 48 ce db bf
       4.2 -0.43446549078207614
000120 45 7d 89 d2 f0 eb c9 bf 59 e0 8c 38 a9 b1 de bf
       -0.20251283912782916 -0.47959356806268755
000130 6d 2d 9f 4a a5 e6 d5 bf 5c 96 2d 8e 03 a1 dc bf
       -0.34220249450000645 -0.4473275078256387
000140 66 30 4b 37 8a 57 cf bf 61 cf 42 55 48 d3 d0 bf
       -0.2448590059269719 -0.2628956635119178
000150 ef 81 c5 a1 69 21 a2 bf ab f9 4c 07 b8 f7 e0 3f
       -0.03541116809606481 0.5302391188231942
000160 20 af 44 9d b3 6b d9 3f c8 05 33 60 6a 11 c3 3f
       0.39719858511192463 0.1489689798091105
000170 83 a0 5b 48 c5 54 c7 3f 43 57 61 04 99 e7 f4 3f
       0.18227449448682273 1.3065424128630674
000180 ee e4 de 5d 00 4c a5 3f 87 8a 4a 31 37 a8 90 bf
       0.0415954699123605 -0.016266691573614735
000190 8c 6f f3 da c5 b5 91 bf 02 20 65 1e 9f 6a d3 bf
       -0.01729497097845427 -0.3033826634241451
0001a0 cf 24 73 0d 04 15 a1 bf e6 dc e2 6d f5 c9 da bf
       -0.033363463060206315 -0.4185765812976129
0001b0 6f 26 16 39 cf 69 d2 bf a4 c5 35 5e 9e c7 d6 bf
       -0.2877080972180925 -0.3559337539691916
0001c0 bc 3c ea 11 0f 03 d1 bf 49 44 a5 de d5 5b c6 bf
       -0.2658116984320704 -0.17467759486547355
0001d0 54 46 16 30 51 ad db bf 64 e9 b9 5d da f3 fb 3f
       -0.43245343872067576 1.7470344220333454
0001e0 db e9 63 7a 76 1b e3 3f 01 5a c9 3d 40 41 c1 bf
       0.5971023931918426 -0.13480380074425116
0001f0 03 89 8c 48 a7 33 d2 3f 15 ad 33 f7 17 04 f2 3f
       0.2844026764379494 1.1259994179079673
000200 d4 e5 57 1f 57 f2 db 3f 2d 37 56 f7 83 0f f3 3f
       0.43666627941965186 1.191287962111754
000210 ab aa 5e 52 48 7c f6 3f 00 00 00 00 00 00 00 40
       1.405342408902167 2.0
000220 cd cc cc cc cc cc 0c 40 00 00 00 00 00 00 0c 40
       3.6 3.5
000230 a8 83 43 24 61 5b dd bf 44 7d 89 d2 f0 eb c9 bf
       -0.45870235959415107 -0.20251283912782914
000240 8a 70 79 a0 76 19 dd bf 50 fb 14 14 cd 09 d8 bf
       -0.45467916175199063 -0.37559821091774825
000250 32 82 30 c3 f4 9c de bf f7 09 fc 5b 08 a2 d3 bf
       -0.478329840292676 -0.30676468832839937
000260 d6 a4 88 df 95 35 d1 bf c6 95 ca fc 5d 9a a6 bf
       -0.26889559583157785 -0.04414647780258067
000270 61 42 14 69 b7 44 e8 3f dc e9 63 7a 76 1b e3 3f
       0.7583882381750976 0.5971023931918427
000280 5b 7e 3d e4 9b f2 b0 3f dd f1 b9 72 24 05 bd bf
       0.06620191881438002 -0.11335971642433358
000290 80 f7 a8 0c bf 82 d9 3f 1b 9f 96 90 cb ee c4 bf
       0.3986051200516769 -0.1635374504087331
0002a0 1b 15 db 24 4c 6c c9 3f 24 e5 6c 7f c2 a7 b1 3f
       0.19861747550582085 0.06896606074305517
0002b0 67 26 29 0d 59 2e dd bf 44 7d 89 d2 f0 eb c9 bf
       -0.45595384869793637 -0.20251283912782914
0002c0 41 cc 3b 92 84 2d d9 bf 8e 98 b3 0f 15 fe d9 bf
       -0.3934031894743307 -0.4061329511008659
0002d0 da c6 40 73 e9 c8 dd bf b8 a1 00 d3 f4 3f d7 bf
       -0.46538769011668324 -0.3632785854884122
0002e0 69 da ea 3e e5 b1 d4 bf 8e d9 5b de 0b 07 9a bf
       -0.3233578791072547 -0.025417504736617462
0002f0 29 79 b5 4e 37 7c e9 3f 20 af 44 9d b3 6b d9 3f
       0.7964130914004147 0.39719858511192463
000300 4c 96 ce ff d8 31 d0 bf 74 c5 fc 77 a9 46 98 3f
       -0.25304245930815195 0.0237070540890207
000310 bc ae f9 2f c4 11 fd 3f b7 1d 53 e7 bd 31 d3 3f
       1.816837489513019 0.29991099920558945
000320 17 a1 4c 06 61 cf d2 bf 07 93 be 53 f7 71 94 bf
       -0.2939074098126339 -0.019965996252397946
000330 33 33 33 33 33 33 fb 3f 66 66 66 66 66 66 0e 40
       1.7 3.8
000340 00 00 00 00 00 00 14 40 7a 09 18 61 9e 2b dd bf
       5.0 -0.45578727227998395
000350 45 7d 89 d2 f0 eb c9 bf da 70 d8 57 5f 77 dc bf
       -0.20251283912782916 -0.4447859151712358
000360 a0 75 ac 6f 3d b0 d8 bf 79 7b 31 2a 45 46 df bf
       -0.3857568350375349 -0.48866395111502176
000370 eb 53 0d 9c e2 6c d4 bf 50 51 d1 77 18 54 d1 bf
       -0.31914582480868486 -0.2707577867597779
000380 a4 5b 5a f2 75 d2 a3 bf 13 3c c3 ee 9a 42 f5 3f
       -0.03871506293687979 1.328761036554856
000390 26 7c 25 26 13 81 e9 3f 14 42 26 ae 70 d7 ab 3f
       0.7970062012717605 0.05437805295798995
0003a0 47 9b ca c2 3b 10 dc 3f 0c 9d 06 75 b2 70 ec 3f
       0.4384908106098248 0.8887569699917619
0003b0 42 be 1e d5 dc 75 db 3f 9f 15 40 5d 19 e8 ce 3f
       0.4290687638522038 0.24145810178030744
0003c0 67 6f c7 8c b1 f7 dc 3f 26 26 2d 1f 4d a1 dd bf
       0.45261801479295233 -0.4629700474220918
0003d0 45 7d 89 d2 f0 eb c9 bf 1d 62 70 e9 e8 1e dc bf
       -0.20251283912782916 -0.43938658520485935
0003e0 b3 02 6e 55 aa 0c da bf 78 66 2c 37 3b 81 df bf
       -0.40702303259608213 -0.49226265323668583
0003f0 5a 96 86 46 c1 2a d7 bf 16 54 44 ec b7 61 d2 bf
       -0.3619845570304726 -0.2872142607969307
000400 a0 e9 c6 4e 7f 9b a0 bf f1 af 56 34 b7 b3 ea 3f
       -0.03243635021813707 0.8344379446257318
000410 27 7c 25 26 13 81 e9 3f 64 bd 9f f2 75 10 be 3f
       0.7970062012717606 0.117438670858737
000420 d3 6c 0b 8b a5 a2 e7 3f 0a bb 9e 14 39 e6 f2 3f
       0.7386043277469078 1.1812067800016757
000430 37 f5 92 54 61 4b e4 3f 35 3f 0f 63 a7 c5 e3 3f
       0.6342016841732975 0.6178776678807255
000440 0c f9 16 2f d3 2e c6 bf cd cc cc cc cc cc 00 40
       -0.17330398368171307 2.1
000450 00 00 00 00 00 00 0c 40 00 00 00 00 00 00 0c 40
       3.5 3.5
000460 64 69 22 82 b9 4c dc bf 44 7d 89 d2 f0 eb c9 bf
       -0.44218290050925746 -0.20251283912782914
000470 d0 69 61 d4 b7 98 da bf 4f 0c d6 d8 3e 06 d9 bf
       -0.41557117214474903 -0.3910061948337828
000480 c5 5d 7a ab 3f 08 df bf fb 53 90 49 9e 18 d5 bf
       -0.4848784613218096 -0.3296275823971084
000490 0a 9e a3 77 ea bf d0 bf fe 8e 36 fe fa 13 a4 bf
       -0.26171361621388256 -0.03921493867099278
0004a0 84 c9 df 8b ba d2 f9 3f ba e0 15 51 7a 1a eb 3f
       1.613947435744735 0.8469821532917401
0004b0 03 ad d2 aa 0d 76 b2 3f 53 71 68 1c a3 6e e2 3f
       0.07211385174257505 0.5760055117457717
0004c0 24 54 24 f3 6f 84 f2 3f d2 e7 cd 13 15 10 e8 3f
       1.1573333261233154 0.7519631754687401
0004d0 9e 8f ab f6 06 75 c8 3f 56 8c b3 af 37 e6 d1 3f
       0.19107138676110663 0.27967636259399364
0004e0 ba 6e 0d bc c2 96 db bf 46 7d 89 d2 f0 eb c9 bf
       -0.431076701779357 -0.2025128391278292
0004f0 38 f1 ec 6e d0 af d3 3f aa e4 f7 a8 fc f4 d1 bf
       0.30760584671567726 -0.2805778169709564
000500 2e ba 44 59 96 a4 dd bf 1e 39 05 fc 9e 22 cc bf
       -0.4631706115496027 -0.21980655008014421
000510 85 cb 8d 79 ec d5 b7 bf e1 d8 c3 45 6c 35 bb bf
       -0.09310796706794917 -0.10628391936538463
000520 10 95 1d fa 77 93 e1 3f bd 99 1e a3 6a cc 91 3f
       0.5492515454358529 0.017381349760080534
000530 b0 51 14 c2 05 ee d9 3f 90 b2 53 3f d2 26 cf 3f
       0.4051527400308954 0.24337223140846165
000540 62 69 31 54 bf 14 f4 3f 80 92 3a 44 d3 c2 cc 3f
       1.2550652779378528 0.22469559508785508
000550 de a7 69 0d d7 29 c0 3f 6b 5a b4 17 17 23 df bf
       0.1262768569461618 -0.48651673617260965
000560 52 b8 1e 85 eb 51 11 40 00 00 00 00 00 00 0e 40
       4.33 3.75
000570 cd cc cc cc cc cc fc 3f 46 02 21 18 ea 60 dc bf
       1.8 -0.44341518741933716
000580 44 7d 89 d2 f0 eb c9 bf da 87 b3 24 c6 da d7 bf
       -0.20251283912782914 -0.37272790512190357
000590 de 2a 1f e6 70 fb d8 bf 92 99 75 db 60 a1 df bf
       -0.39034674141718806 -0.4942247527273135
0005a0 82 38 65 53 f5 40 d5 bf ce 32 50 1b f2 6a d0 bf
       -0.33208974021989246 -0.2565274492961124
0005b0 6e fa f4 d6 ef aa a6 bf 09 45 d6 ac 5a 4d f8 3f
       -0.044272894849645236 1.518885302681442
0005c0 01 b3 44 d0 44 4e e6 3f 5a 7e 3d e4 9b f2 b0 3f
       0.6970542972318016 0.06620191881438
0005d0 80 18 5d 87 ce 51 e9 3f 54 cc 5e d3 91 56 ee 3f
       0.7912361759015454 0.9480675819708133
0005e0 21 e9 13 4a a9 39 f0 3f a8 80 25 54 6d c7 cb 3f
       1.014077462545693 0.21702353104320093
0005f0 39 aa 85 78 5c 8b cf 3f b4 1c bc f5 3b a7 db bf
       0.24644046673650324 -0.4320821666482957
000600 45 7d 89 d2 f0 eb c9 bf d1 ae 47 87 d7 14 d9 bf
       -0.20251283912782916 -0.3918970891088352
000610 2e 00 9b 47 3c ee d5 bf 22 32 ea 03 bc 74 de bf
       -0.34266573899003816 -0.4758749044638383
000620 e2 31 b2 26 fa 90 d6 bf d3 70 06 0f 33 96 d2 bf
       -0.35259870318330233 -0.290417446778304
000630 a7 95 3f dc a7 2e a3 bf 45 57 03 3c e4 32 c3 3f
       -0.037465329776561966 0.14999058657002187
000640 69 06 cd e0 88 5f 65 bf df 4a 65 7e bb 4c c6 bf
       -0.00260903104791126 -0.17421668693221812
000650 d1 36 fa 18 2c 8e ce 3f a3 83 94 e1 5d 95 ec 3f
       0.23871375293349797 0.8932332425939545
000660 f1 24 ad dd 51 29 e0 3f 77 28 7d 6f ad 15 bd bf
       0.505043919526683 -0.11361202213189069
000670 a6 fd 97 7d 57 31 a5 bf 66 66 66 66 66 66 00 40
       -0.04139207275511163 2.05
000680 66 66 66 66 66 66 0a 40 66 66 66 66 66 66 0e 40
       3.3 3.8
000690 06 0a 44 b2 5d 9a db bf 44 7d 89 d2 f0 eb c9 bf
       -0.4312967530132997 -0.20251283912782914
0006a0 c0 fb 82 95 b7 ee d7 bf 5e 4f aa 2f 63 4e d7 bf
       -0.37394513703105403 -0.36415939001857633
0006b0 73 6f 87 09 93 f5 de bf 4a 6a 5a eb 2c c2 d4 bf
       -0.48373866968699203 -0.32435152991971405
0006c0 13 79 34 e0 08 fa cf bf 5f 98 31 63 fd 18 a5 bf
       -0.2498179526091425 -0.04120628200398423
0006d0 e8 64 b0 7e 7a 6e fa 3f 26 7c 25 26 13 81 e9 3f
       1.651972288970052 0.7970062012717605
0006e0 54 0a fd 37 f1 7c b5 3f 06 d2 e7 02 20 61 f0 3f
       0.08393771759896512 1.0237121690271365
0006f0 2b 43 c1 1d 73 c5 f1 3f a2 ad b8 3c 97 71 f2 3f
       1.110705486517143 1.1527321216516175
000700 55 32 4e cc d2 83 c0 3f eb f5 35 71 ee 58 d5 3f
       0.12902293182232208 0.3335529428075847
000710 d0 fb d7 8a 0a dc dd bf 45 7d 89 d2 f0 eb c9 bf
       -0.4665552478690502 -0.20251283912782916
000720 d2 34 42 69 1e a5 d4 bf fb bb be 3b 89 84 d7 bf
       -0.3225780513683506 -0.36746435961225615
000730 1e 16 a6 b2 71 48 dc bf 12 a7 3c a9 c9 52 cb bf
       -0.44192163892907554 -0.21346398128053373
000740 b8 fb 49 97 b3 e3 d0 bf 08 0c 36 56 2d dd 82 3f
       -0.26389779829326754 0.009210924333052276
000750 20 97 33 96 32 02 b4 bf 46 7d 89 d2 f0 eb c9 bf
       -0.07815853278188145 -0.2025128391278292
000760 a0 2e 5d 52 e3 0f c2 bf de a9 00 b3 05 46 bf 3f
       -0.1411098625343259 0.12216220493488758
000770 5a 68 70 b8 9b 96 dd 3f d8 a2 57 3a 0a 0e d1 3f
       0.462317400089551 0.26648193070881865
000780 3a df 29 09 3a a8 cf 3f fe 39 37 99 7d 0e fe 3f
       0.24732137153091022 1.8785377488126183
000790 cd cc cc cc cc cc fc 3f 00 00 00 00 00 00 0c 40
       1.8 3.5
0007a0 00 00 00 00 00 00 13 40 38 2c bd b8 d8 78 d8 bf
       4.75 -0.38237588921464605
0007b0 59 e1 9b 26 c2 83 c2 bf d6 10 9e aa 53 b6 d5 bf
       -0.14464594731522132 -0.339253346079443
0007c0 ee f3 7a 6f 02 43 d3 bf c0 23 b7 ea 8a 28 db bf
       -0.30096493613001385 -0.42434952660965664
0007d0 03 b6 d8 9a b1 48 d1 bf 03 3c 6f 9b dc 8c ca bf
       -0.27006187555056743 -0.20742375936103494
0007e0 4f 32 71 07 8e 5b a9 bf 0c 43 9d 19 6b 48 f3 3f
       -0.04952663269850587 1.2051802635725748
0007f0 6e 4e 54 a5 dd b4 e4 3f d9 b8 d5 1a ef a4 cb 3f
       0.6470783452118221 0.21597088632865427
