models/Layer_2/Data/Playerinputs22_23.npy (npy, 96728 bytes, 1 tensors)

array f8 [345, 35]
00000000: 5861 7071 1279 d9bf 467d 89d2 f0eb c9bf
00000010: aab3 d10a d396 b7bf ac63 3c4e 08fa d1bf
00000020: ccd1 b293 9e45 dcbf dd1c 7e55 65c3 d4bf
00000030: 1c01 fe48 56c4 b6bf 820b f239 f3d7 e9bf
00000040: 54fc 0e4b 5b00 f13f 277c 2526 1381 e93f
00000050: 9661 7263 39a6 e33f 8f29 5023 87be f33f
00000060: 5a5e 7995 2c89 f03f fa35 acbc c7bf 0240
00000070: d7b4 cad4 d123 0640 4770 3d60 b696 f03f
00000080: 8039 5b0f 03e5 d7bf 457d 89d2 f0eb c9bf
00000090: 843b 258b 44c8 d7bf 4d54 5581 6d50 d6bf
000000a0: 940f 7766 b5ba ddbf a1e0 8e44 435a d6bf
000000b0: 0828 9d97 e7dc d2bf 9015 cac0 2ef3 9fbf
000000c0: 10f9 63c3 5030 eb3f a710 1b65 71af dd3f
000000d0: ced1 b46b b28f cd3f 55db 133d 8d6d e53f
000000e0: 8430 5dbd 5ea4 f43f e77a 32c1 4631 e83f
000000f0: 3166 d8ad c81e dd3f 7781 aa58 3914 e3bf
00000100: ae47 e17a 14ae fb3f cdcc cccc cccc 1040
00000110: cdcc cccc cccc 1040 2793 8958 48ce dbbf
00000120: 457d 89d2 f0eb c9bf 59e0 8c38 a9b1 debf
00000130: 6d2d 9f4a a5e6 d5bf 5c96 2d8e 03a1 dcbf
00000140: 6630 4b37 8a57 cfbf 61cf 4255 48d3 d0bf
00000150: ef81 c5a1 6921 a2bf abf9 4c07 b8f7 e03f
00000160: 20af 449d b36b d93f c805 3360 6a11 c33f
00000170: 83a0 5b48 c554 c73f 4357 6104 99e7 f43f
00000180: eee4 de5d 004c a53f 878a 4a31 37a8 90bf
00000190: 8c6f f3da c5b5 91bf 0220 651e 9f6a d3bf
000001a0: cf24 730d 0415 a1bf e6dc e26d f5c9 dabf
000001b0: 6f26 1639 cf69 d2bf a4c5 355e 9ec7 d6bf
000001c0: bc3c ea11 0f03 d1bf 4944 a5de d55b c6bf
000001d0: 5446 1630 51ad dbbf 64e9 b95d daf3 fb3f
000001e0: dbe9 637a 761b e33f 015a c93d 4041 c1bf
000001f0: 0389 8c48 a733 d23f 15ad 33f7 1704 f23f
00000200: d4e5 571f 57f2 db3f 2d37 56f7 830f f33f
00000210: abaa 5e52 487c f63f 0000 0000 0000 0040
00000220: cdcc cccc cccc 0c40 0000 0000 0000 0c40
00000230: a883 4324 615b ddbf 447d 89d2 f0eb c9bf
00000240: 8a70 79a0 7619 ddbf 50fb 1414 cd09 d8bf
00000250: 3282 30c3 f49c debf f709 fc5b 08a2 d3bf
00000260: d6a4 88df 9535 d1bf c695 cafc 5d9a a6bf
00000270: 6142 1469 b744 e83f dce9 637a 761b e33f
00000280: 5b7e 3de4 9bf2 b03f ddf1 b972 2405 bdbf
00000290: 80f7 a80c bf82 d93f 1b9f 9690 cbee c4bf
000002a0: 1b15 db24 4c6c c93f 24e5 6c7f c2a7 b13f
000002b0: 6726 290d 592e ddbf 447d 89d2 f0eb c9bf
000002c0: 41cc 3b92 842d d9bf 8e98 b30f 15fe d9bf
000002d0: dac6 4073 e9c8 ddbf b8a1 00d3 f43f d7bf
000002e0: 69da ea3e e5b1 d4bf 8ed9 5bde 0b07 9abf
000002f0: 2979 b54e 377c e93f 20af 449d b36b d93f
00000300: 4c96 ceff d831 d0bf 74c5 fc77 a946 983f
00000310: bcae f92f c411 fd3f b71d 53e7 bd31 d33f
00000320: 17a1 4c06 61cf d2bf 0793 be53 f771 94bf
00000330: 3333 3333 3333 fb3f 6666 6666 6666 0e40
00000340: 0000 0000 0000 1440 7a09 1861 9e2b ddbf
00000350: 457d 89d2 f0eb c9bf da70 d857 5f77 dcbf
00000360: a075 ac6f 3db0 d8bf 797b 312a 4546 dfbf
00000370: eb53 0d9c e26c d4bf 5051 d177 1854 d1bf
00000380: a45b 5af2 75d2 a3bf 133c c3ee 9a42 f53f
00000390: 267c 2526 1381 e93f 1442 26ae 70d7 ab3f
000003a0: 479b cac2 3b10 dc3f 0c9d 0675 b270 ec3f
000003b0: 42be 1ed5 dc75 db3f 9f15 405d 19e8 ce3f
000003c0: 676f c78c b1f7 dc3f 2626 2d1f 4da1 ddbf
000003d0: 457d 89d2 f0eb c9bf 1d62 70e9 e81e dcbf
000003e0: b302 6e55 aa0c dabf 7866 2c37 3b81 dfbf
000003f0: 5a96 8646 c12a d7bf 1654 44ec b761 d2bf
00000400: a0e9 c64e 7f9b a0bf f1af 5634 b7b3 ea3f
00000410: 277c 2526 1381 e93f 64bd 9ff2 7510 be3f
00000420: d36c 0b8b a5a2 e73f 0abb 9e14 39e6 f23f
00000430: 37f5 9254 614b e43f 353f 0f63 a7c5 e33f
00000440: 0cf9 162f d32e c6bf cdcc cccc cccc 0040
00000450: 0000 0000 0000 0c40 0000 0000 0000 0c40
00000460: ceb0 aa3a df76 dcbf 447d 89d2 f0eb c9bf
00000470: f9ec 5208 123b d9bf 4501 935d c710 dabf
00000480: 3da0 3eb5 53d5 dfbf 9392 de58 91e7 d6bf
00000490: 988d 6ed8 75b9 d0bf 023e 5c72 2bba a4bf
000004a0: be8d 9d0e 5a9a ff3f 710e e7d1 afe6 ef3f
000004b0: fd1a 4347 41ce a73f 0f9f 830a c9a1 e63f
000004c0: c4fd 0f98 b7b8 f13f fd3a 7318 dca3 ef3f
000004d0: 4ced 2320 dba6 d03f 6fcd 29b4 133c d83f
000004e0: ba6e 0dbc c296 dbbf 467d 89d2 f0eb c9bf
000004f0: 38f1 ec6e d0af d33f aae4 f7a8 fcf4 d1bf
00000500: 2eba 4459 96a4 ddbf 1e39 05fc 9e22 ccbf
00000510: 85cb 8d79 ecd5 b7bf e1d8 c345 6c35 bbbf
00000520: 1095 1dfa 7793 e13f bd99 1ea3 6acc 913f
00000530: b051 14c2 05ee d93f 90b2 533f d226 cf3f
00000540: 6269 3154 bf14 f43f 8092 3a44 d3c2 cc3f
00000550: dea7 690d d729 c03f 6b5a b417 1723 dfbf
00000560: 52b8 1e85 eb51 1140 0000 0000 0000 0e40
00000570: cdcc cccc cccc fc3f fb86 d77a 0f89 dbbf
00000580: 457d 89d2 f0eb c9bf 8e5f cdd8 46a3 d6bf
00000590: c1a0 503e 9a95 d8bf c052 3627 df4e dfbf
000005a0: c4cc c0e5 2d79 d4bf a4c5 d0ab a106 d0bf
000005b0: 09c0 5601 cf32 a5bf ddc4 a3c4 2f24 fb3f
000005c0: 9f1a 4f5e 553d e53f c102 4bd8 ae02 b83f
000005d0: 6ff6 5e17 9e0f f33f 0e7c 430c 1ff1 f63f
000005e0: 7b16 ccaf 9299 f73f 082d 92b5 5c65 c33f
000005f0: 4d8e 8cc6 d3b7 d13f b41c bcf5 3ba7 dbbf
00000600: 457d 89d2 f0eb c9bf d1ae 4787 d714 d9bf
00000610: 2e00 9b47 3cee d5bf 2232 ea03 bc74 debf
00000620: e231 b226 fa90 d6bf d370 060f 3396 d2bf
00000630: a795 3fdc a72e a3bf 4557 033c e432 c33f
00000640: 6906 cde0 885f 65bf df4a 657e bb4c c6bf
00000650: d136 fa18 2c8e ce3f a383 94e1 5d95 ec3f
00000660: f124 addd 5129 e03f 7728 7d6f ad15 bdbf
00000670: a6fd 977d 5731 a5bf 6666 6666 6666 0040
00000680: 6666 6666 6666 0a40 6666 6666 6666 0e40
00000690: 5206 c5a4 7434 dbbf 447d 89d2 f0eb c9bf
000006a0: d829 2785 e4d7 d6bf 12f1 9932 7a69 d6bf
000006b0: 41c5 f8b9 cc69 debf 7040 13db 5e57 d4bf
000006c0: 96da aeba a2ec cebf 087e 19e5 6f60 a7bf
000006d0: 9860 d987 4512 f63f 9e1a 4f5e 553d e53f
000006e0: 4d96 bc8b 4607 ba3f 450e 2072 743a eb3f
000006f0: 3813 3589 1574 eb3f b3aa ee49 d8f6 ef3f
00000700: c821 1f42 ba1f b03f bf4a 9550 6681 a33f
00000710: d0fb d78a 0adc ddbf 457d 89d2 f0eb c9bf
00000720: d234 4269 1ea5 d4bf fbbb be3b 8984 d7bf
00000730: 1e16 a6b2 7148 dcbf 12a7 3ca9 c952 cbbf
00000740: b8fb 4997 b3e3 d0bf 080c 3656 2ddd 823f
00000750: 2097 3396 3202 b4bf 467d 89d2 f0eb c9bf
00000760: a02e 5d52 e30f c2bf dea9 00b3 0546 bf3f
00000770: 5a68 70b8 9b96 dd3f d8a2 573a 0a0e d13f
00000780: 3adf 2909 3aa8 cf3f fe39 3799 7d0e fe3f
00000790: cdcc cccc cccc fc3f 0000 0000 0000 0c40
000007a0: 0000 0000 0000 1340 3f0d 9154 1d11 d8bf
000007b0: 0b58 f797 b20b c0bf 8b4f 2920 2ff4 d5bf
000007c0: 1e55 8838 4201 d1bf c8d8 d7d3 fe1b dabf
000007d0: 41ad db10 4eaf cebf 88a2 822a 3b64 c9bf
000007e0: 11e0 fd53 8fdc aabf e666 2a02 6214 e93f
000007f0: 17b9 7896 97f9 e03f f968 6fdd 1183 cf3f
-0.3980146510889617 -0.2025128391278292 -0.09214514745845173 -0.2808857692739888 -0.44174923347170814 -0.3244260153664536 -0.08893336565052262 -0.8076110965488257
1.0625870639776354 0.7970062012717606 0.6140410368271201 1.2340155963343908 1.0334897841293214 2.343642686849077 2.7674900650368772 1.0367950209975036
-0.3733527803386991 -0.20251283912782916 -0.37159837330266776 -0.3486589205761604 -0.46452078825336085 -0.34925920195702004 -0.2947329502682128 -0.03120110561078132
0.8496478859158589 0.4638331878052306 0.23094778308008163 0.6696230118676377 1.2901294133216945 0.756015183771379 0.45500390030938137 -0.5962187511213831
1.73 4.2 4.2 -0.43446549078207614 -0.20251283912782916 -0.47959356806268755 -0.34220249450000645 -0.4473275078256387
-0.2448590059269719 -0.2628956635119178 -0.03541116809606481 0.5302391188231942 0.39719858511192463 0.1489689798091105 0.18227449448682273 1.3065424128630674
0.0415954699123605 -0.016266691573614735 -0.01729497097845427 -0.3033826634241451 -0.033363463060206315 -0.4185765812976129 -0.2877080972180925 -0.3559337539691916
-0.2658116984320704 -0.17467759486547355 -0.43245343872067576 1.7470344220333454 0.5971023931918426 -0.13480380074425116 0.2844026764379494 1.1259994179079673
0.43666627941965186 1.191287962111754 1.405342408902167 2.0 3.6 3.5 -0.45870235959415107 -0.20251283912782914
-0.45467916175199063 -0.37559821091774825 -0.478329840292676 -0.30676468832839937 -0.26889559583157785 -0.04414647780258067 0.7583882381750976 0.5971023931918427
0.06620191881438002 -0.11335971642433358 0.3986051200516769 -0.1635374504087331 0.19861747550582085 0.06896606074305517 -0.45595384869793637 -0.20251283912782914
-0.3934031894743307 -0.4061329511008659 -0.46538769011668324 -0.3632785854884122 -0.3233578791072547 -0.025417504736617462 0.7964130914004147 0.39719858511192463
-0.25304245930815195 0.0237070540890207 1.816837489513019 0.29991099920558945 -0.2939074098126339 -0.019965996252397946 1.7 3.8
5.0 -0.45578727227998395 -0.20251283912782916 -0.4447859151712358 -0.3857568350375349 -0.48866395111502176 -0.31914582480868486 -0.2707577867597779
-0.03871506293687979 1.328761036554856 0.7970062012717605 0.05437805295798995 0.4384908106098248 0.8887569699917619 0.4290687638522038 0.24145810178030744
0.45261801479295233 -0.4629700474220918 -0.20251283912782916 -0.43938658520485935 -0.40702303259608213 -0.49226265323668583 -0.3619845570304726 -0.2872142607969307
-0.03243635021813707 0.8344379446257318 0.7970062012717606 0.117438670858737 0.7386043277469078 1.1812067800016757 0.6342016841732975 0.6178776678807255
-0.17330398368171307 2.1 3.5 3.5 -0.4447553704183179 -0.20251283912782914 -0.39423037350543627 -0.4072740949450416
-0.49739544582053324 -0.35788377455382053 -0.26131960044787084 -0.04048286219596876 1.9751835413852485 0.9969100093516784 0.04649547572039656 0.7072491841654215
1.1075969638767313 0.9887524106541999 0.2601840795393471 0.3786668071181429 -0.431076701779357 -0.2025128391278292 0.30760584671567726 -0.2805778169709564
-0.4631706115496027 -0.21980655008014421 -0.09310796706794917 -0.10628391936538463 0.5492515454358529 0.017381349760080534 0.4051527400308954 0.24337223140846165
1.2550652779378528 0.22469559508785508 0.1262768569461618 -0.48651673617260965 4.33 3.75 1.8 -0.43024050709037426
-0.20251283912782916 -0.3537156216821068 -0.384131012777754 -0.48918894604984686 -0.319896196716581 -0.25040475634440384 -0.04140326396316147 1.6963346177329222
0.6637369958851486 0.09379093914595683 1.1913128769805572 1.4338675002143222 1.4749934069708661 0.1515308271958491 0.27684492482714945 -0.4320821666482957
-0.20251283912782916 -0.3918970891088352 -0.34266573899003816 -0.4758749044638383 -0.35259870318330233 -0.290417446778304 -0.037465329776561966 0.14999058657002187
-0.00260903104791126 -0.17421668693221812 0.23871375293349797 0.8932332425939545 0.505043919526683 -0.11361202213189069 -0.04139207275511163 2.05
3.3 3.8 -0.42507663813384966 -0.20251283912782914 -0.3569270420381634 -0.3501878255990657 -0.4752075019960849 -0.3178326739698667
-0.24159654727346397 -0.04565763160348629 1.3794608408552786 0.6637369958851485 0.10167351638355022 0.8508856038101348 0.8579204253988797 0.9988824314107972
0.06298412432000255 0.03809661611253067 -0.4665552478690502 -0.20251283912782916 -0.3225780513683506 -0.36746435961225615 -0.44192163892907554 -0.21346398128053373
-0.26389779829326754 0.009210924333052276 -0.07815853278188145 -0.2025128391278292 -0.1411098625343259 0.12216220493488758 0.462317400089551 0.26648193070881865
0.24732137153091022 1.8785377488126183 1.8 3.5 4.75 -0.3760445905538354 -0.1253569833776854 -0.34302881375082767
-0.2657018234325096 -0.40795870483215113 -0.23972488234663028 -0.19837131095598104 -0.052463988306897254 0.783738140325309 0.5304677904985365 0.24618743240609556
