models/Layer_2/Data/Playerinputs21_22.npy (npy, 93928 bytes, 1 tensors)

array f8 [335, 35]
000000 31 2c 90 9f 4a e7 dc bf 45 7d 89 d2 f0 eb c9 bf
       -0.4516169126733898 -0.20251283912782916
000010 b6 9f ae b1 73 96 ce bf 30 7c 63 0a bc 85 d9 bf
       -0.23896642852673516 -0.39878750814927155
000020 ae 8f e2 ad a5 47 e0 bf e2 44 48 9e 41 c6 d3 bf
       -0.5087459942046644 -0.30897560555702175
000030 0f 71 34 76 ca 02 cd bf b9 54 3a 9e d5 74 b1 bf
       -0.22664767047616194 -0.06818900216088054
000040 59 f4 c8 7f 71 e6 d0 3f 46 7d 89 d2 f0 eb c9 bf
       0.2640651462459736 -0.2025128391278292
000050 43 04 48 d6 55 9f e0 3f e6 3e 9b 70 99 cb d8 3f
       0.5194501099759993 0.38742671963426145
000060 f9 d5 31 19 66 72 d3 3f e1 5e 06 d1 12 41 93 3f
       0.3038573499719344 0.018802923210016757
000070 f0 45 97 d6 47 75 eb 3f 13 46 ce 7c 12 dd df 3f
       0.8580664817074517 0.49786817730009253
000080 21 15 c1 da 18 cc dc bf 45 7d 89 d2 f0 eb c9 bf
       -0.4499570976516499 -0.20251283912782916
000090 bb a3 92 4f df 16 d7 bf 32 c9 8a dd f4 2c da bf
       -0.3607710148885947 -0.40899392733549
0000a0 cf 3e 11 59 c3 d5 dd bf ba 7b 52 9c 4b 98 d7 bf
       -0.46617206285462215 -0.3686703707298268
0000b0 db aa 2f 91 3e 34 cc bf e2 72 5a 2d 5c e1 b2 bf
       -0.2203443726460453 -0.07375122172602347
0000c0 54 fc 0e 4b 5b 00 f1 3f 21 af 44 9d b3 6b d9 3f
       1.0625870639776354 0.3971985851119247
0000d0 c3 02 4b d8 ae 02 b8 3f 6b 27 ec c5 b2 26 d4 3f
       0.09379093914595686 0.31486195877425044
0000e0 35 8d 82 3c 6b 01 f7 3f d5 bd 45 a1 6b f7 c1 3f
       1.437846409194049 0.1403631722891833
0000f0 94 da 6c 46 99 58 ae 3f 18 f0 1a 9a 3b db b0 bf
       0.05926970467264883 -0.06584522735914822
000100 9a 99 99 99 99 99 03 40 66 66 66 66 66 66 0a 40
       2.45 3.3
000110 33 33 33 33 33 33 07 40 28 a5 5c d3 6a 83 da bf
       2.9 -0.41427107468423907
000120 45 7d 89 d2 f0 eb c9 bf ff 84 43 59 e4 7d ca bf
       -0.20251283912782916 -0.20696691855031443
000130 9c 36 c2 ec 28 bf d7 bf 3b 50 2c 1d 49 ad dc bf
       -0.3710424720855856 -0.4480765137570903
000140 52 20 ec f4 3a 3a d1 bf 86 66 b5 3d fb d7 ce bf
       -0.2691790954418184 -0.24096622956385633
000150 de ab 20 71 91 81 ac bf 3e 13 d6 5e bb 16 f0 3f
       -0.055676026401066045 1.0055497841396597
000160 20 af 44 9d b3 6b d9 3f 9a b8 a2 64 79 3e e0 3f
       0.39719858511192463 0.5076262441196093
000170 24 18 63 e2 bf 91 d9 3f ed df a5 fb 34 d9 e4 3f
       0.3995208464442632 0.6515145220755564
000180 d0 3a c4 2d 8c fa d1 3f a6 f1 84 11 d0 30 e1 3f
       0.2809172102869697 0.5372085897611683
000190 78 87 de 31 31 eb bc 3f b2 eb 0f 7e 2e 8f dc bf
       0.11296374766837214 -0.4462391120029522
0001a0 45 7d 89 d2 f0 eb c9 bf fa fa ca ca c6 21 d2 bf
       -0.20251283912782916 -0.2833115559005105
0001b0 bb 57 43 29 f6 f6 d8 bf 14 95 82 6a 6c 20 df bf
       -0.39007333783717585 -0.48635397340179165
0001c0 ba 7b 52 9c 4b 98 d7 bf 84 7f 8e dd 93 db d0 bf
       -0.3686703707298268 -0.263401953090572
0001d0 65 45 87 59 fa 20 b4 bf 34 18 15 78 70 11 dd 3f
       -0.07862820325614946 0.45418941237255983
0001e0 69 06 cd e0 88 5f 65 bf 1d 84 94 2c 2b 59 b0 bf
       -0.00260903104791126 -0.06386060560591074
0001f0 e6 8b 3c c4 9f 99 b3 3f 2b 73 37 3f db ab f6 3f
       0.07656286755495464 1.4169571370504837
000200 b4 e7 65 b0 1b c6 c8 3f 79 76 04 99 1e af bc bf
       0.19354578126131872 -0.11204711185242812
000210 ec e4 34 10 00 33 af bf 33 33 33 33 33 33 ff 3f
       -0.06093597600779241 1.95
000220 cd cc cc cc cc cc 0c 40 66 66 66 66 66 66 0e 40
       3.6 3.8
000230 f7 26 da a6 26 3e dc bf 45 7d 89 d2 f0 eb c9 bf
       -0.44129339498668635 -0.20251283912782916
000240 44 c9 20 96 1f 18 b6 bf 36 8a 80 9e 56 15 d9 bf
       -0.08630559363590345 -0.3919273898956449
000250 a2 f3 ee e4 4b 3a de bf a1 75 a7 55 1d ea ce bf
       -0.4723081336667808 -0.24151961023646343
000260 a4 59 50 08 d6 0a cb bf 77 48 6c 03 e9 e7 89 3f
       -0.21126819044066025 0.012649364869080621
000270 68 e7 c1 ba e2 8f e0 3f 15 15 83 8b f4 40 c9 3f
       0.5175641677480884 0.19729477703200674
000280 da af 0e 87 a8 fc d6 3f 92 98 4f 89 3e 94 ed 3f
       0.35917103947826734 0.924346225915331
000290 11 f6 ac 7a 5c bb e8 3f 54 0b d4 ed bc f1 e1 3f
       0.7728712459572212 0.5607590336879675
0002a0 00 62 bb c3 48 26 e2 3f e4 95 af 7f 07 8f 81 3f
       0.5671733687295841 0.008573587974704595
0002b0 1b bf f9 11 52 e2 db bf 45 7d 89 d2 f0 eb c9 bf
       -0.4356885123770426 -0.20251283912782916
0002c0 00 c1 43 36 91 1c d8 bf 94 18 b7 85 15 d5 d7 bf
       -0.37674360560687603 -0.37238061960341295
0002d0 18 1f 6f 5b 06 58 de bf db 3a 9a a9 9a 62 d0 bf
       -0.4741226094160864 -0.2560183197282819
0002e0 4b 76 25 e0 9b 7a d2 bf 1a 04 df e0 11 3e 9e bf
       -0.2887334526948037 -0.029533652639433063
0002f0 1b 86 bc 13 c6 d2 d9 3f 3c 06 cd e0 88 5f 65 bf
       0.4034896080721368 -0.0026090310479112405
000300 e8 26 25 47 7c 56 b7 3f fa ab eb 39 bc 5f e6 3f
       0.09116341340009237 0.6991864329587536
000310 29 94 fa a7 6e 2b ec 3f 24 6f ac 40 e8 7c da 3f
       0.8803017884098426 0.4138737327173081
000320 95 9f 7d f7 fd bf c2 bf a8 b4 7b 1c b0 ce 86 3f
       -0.1464841326189769 0.011136413449515395
000330 66 66 66 66 66 66 00 40 00 00 00 00 00 00 0c 40
       2.05 3.5
000340 cd cc cc cc cc cc 0c 40 c5 8a d2 f8 70 db da bf
       3.6 -0.41964363383355546
000350 45 7d 89 d2 f0 eb c9 bf 15 a2 58 53 13 ee b4 bf
       -0.20251283912782916 -0.08175774369068052
000360 28 0b 1c 03 16 f7 d7 bf 0c 11 79 15 50 3c dc bf
       -0.3744559316984799 -0.4411812028595399
000370 b1 2a 54 fc 6c 9b cb bf e8 00 d1 99 c9 9b ca bf
       -0.21568071671238934 -0.2078792573029269
000380 66 d0 bd 0f 96 9d 8c 3f 33 73 c9 a4 70 cc f0 3f
       0.013972446780577918 1.0499121129025297
000390 db e9 63 7a 76 1b e3 3f d0 26 58 2b b5 27 d7 3f
       0.5971023931918426 0.3617985652241318
0003a0 fb d1 8f 3f b0 6e ec 3f 47 97 37 b9 97 8e ee 3f
       0.8885117761079181 0.9549063317797185
0003b0 f1 5d de d8 ea 7b e3 3f 40 67 cb 90 c3 7f de 3f
       0.6088766322818043 0.4765480913171025
0003c0 94 64 06 59 03 0b ac bf 2c d2 6d 17 60 4f db bf
       -0.0547715231106817 -0.4267196873472894
0003d0 45 7d 89 d2 f0 eb c9 bf e8 24 74 b9 58 c1 e7 3f
       -0.20251283912782916 0.7423518774168345
0003e0 4c 29 8c 7d 1a b0 d7 bf 4e cc 4e c6 d5 ba de bf
       -0.37012350330828236 -0.4801535069083841
0003f0 7a b7 f7 cb 51 6f d3 bf c8 6d c5 7f bc 2a c3 bf
       -0.303669404208328 -0.14974170912579
000400 97 0c ed 13 1e d5 d2 bf 71 34 91 d2 2c 3c 02 40
       -0.29425765939613185 2.2793823671877864
000410 71 0e e7 d1 af e6 ef 3f 9d 73 f4 ef 17 ae f5 3f
       0.9969100093516784 1.3550032971608978
000420 ba 80 0e 45 d7 3a fc 3f 8d 27 ba ee 18 94 f7 3f
       1.764365453484102 1.4736565900115892
000430 e6 28 f2 b7 30 9f 00 40 d8 b8 93 d5 31 85 e3 3f
       2.077729641988401 0.6100091144014881
000440 7d d6 d5 81 6e 47 c8 3f 00 00 00 00 00 00 15 40
       0.18967992152800042 5.25
000450 66 66 66 66 66 66 0e 40 66 66 66 66 66 66 fa 3f
       3.8 1.65
000460 5c 6e 75 c5 15 b2 dc bf 45 7d 89 d2 f0 eb c9 bf
       -0.44836944850042015 -0.20251283912782916
000470 47 1b b5 af 8a da ca bf 2f 84 c6 0c d4 c4 d6 bf
       -0.20979436473336419 -0.3557634472618387
000480 92 75 b9 d2 6b 36 de bf 43 1d 72 fd 30 3f d1 bf
       -0.4720716054779014 -0.26948189497530367
000490 89 e5 b7 d9 17 dc cd bf 5e 86 c8 6b eb b1 9b 3f
       -0.23327921038416502 0.027045896962709974
0004a0 ee 0b d8 53 8d 5f e1 3f 14 15 83 8b f4 40 c9 3f
       0.5429140698982999 0.1972947770320067
0004b0 bf 29 61 23 17 dd db 3f de 7b 2f ae 05 27 ee 3f
       0.43536928610833664 0.9422634508190375
0004c0 19 be d2 01 d4 9c eb 3f a1 d4 89 b7 59 f1 e4 3f
       0.8628940616235382 0.6544617256864919
0004d0 c1 fd f8 1c e1 d0 e3 3f a7 96 e3 3e 00 e1 d9 3f
       0.6192479673263095 0.4043579687262117
0004e0 0e 1a cb 97 12 43 dd bf 46 7d 89 d2 f0 eb c9 bf
       -0.45721878837176255 -0.2025128391278292
0004f0 45 99 79 b0 6b 05 ab bf 30 c9 8a dd f4 2c da bf
       -0.052775731365545066 -0.4089939273354899
000500 05 b7 19 fc 72 4c e0 bf b9 7b 52 9c 4b 98 d7 bf
       -0.5093321727597134 -0.3686703707298267
000510 2f db 07 ae bc c4 c4 bf 55 71 dd 3b 37 76 bb bf
       -0.16225393769828986 -0.10727257930324659
000520 8d 0d 0d 69 e3 ee cc 3f 46 7d 89 d2 f0 eb c9 bf
       0.22604029302065634 -0.2025128391278292
000530 c9 05 33 60 6a 11 c3 3f 30 c9 8a dd f4 2c da bf
       0.14896897980911053 -0.4089939273354899
000540 06 b7 19 fc 72 4c e0 bf b9 7b 52 9c 4b 98 d7 bf
       -0.5093321727597135 -0.3686703707298267
000550 10 cb 92 db a4 2b bc bf 53 4e 2d c0 5a 3d ad bf
       -0.11004095421484927 -0.057108722647765696
000560 33 33 33 33 33 33 03 40 66 66 66 66 66 66 0a 40
       2.4 3.3
000570 00 00 00 00 00 00 08 40 ba 19 2b 8b 3c 4c d8 bf
       3.0 -0.37965310660038265
000580 2f 45 b7 76 06 3b c5 bf 0a da 75 07 02 5f c2 bf
       -0.16586380764651085 -0.14352441181445413
000590 a3 80 f1 68 25 47 d7 bf 66 f8 54 6b 28 b6 db bf
       -0.36371741531730545 -0.4329930351412997
0005a0 4c a3 0c 58 35 f4 d0 bf 4c a8 11 1c f3 0f d1 bf
       -0.2649052963120553 -0.26659848919974105
0005b0 14 ab f5 92 88 39 94 bf 0a 42 af 98 61 f2 ed 3f
       -0.01975072285623998 0.9358375532265779
0005c0 98 4d 6e d5 f5 27 d5 3f 71 e1 ac 45 7c 35 dd 3f
       0.3305639824186186 0.4563894920752523
0005d0 85 6f f6 19 87 e0 e5 3f 61 76 99 2f 7a f8 e8 3f
       0.6836581713755413 0.7803317002942088
0005e0 5b 04 a4 40 4a cf e0 3f cd 89 67 3b 39 6c e1 3f
       0.5253039610398774 0.5444608841174216
0005f0 9a b7 e7 38 81 60 52 3f 0c 9b 67 61 8a c5 df bf
       0.001121641343725588 -0.4964319182603709
000600 45 7d 89 d2 f0 eb c9 bf d1 62 e4 25 66 61 cf bf
       -0.20251283912782916 -0.24515988207055853
000610 91 61 f7 2b 9f 67 d9 bf e8 a3 aa 36 c9 bd df bf
       -0.3969495705946651 -0.4959586175778541
000620 6d 01 09 0c 2c 3a d4 bf 97 84 ff de 94 a1 cd bf
       -0.31605054068861343 -0.2314935768945687
000630 e8 a2 ef db f4 03 79 bf 37 4e 61 76 9a 37 ee 3f
       -0.006107288819273228 0.9442875206099818
000640 3a c1 81 2f 1e cb e8 3f 12 eb 42 a8 97 30 99 3f
       0.7747946670406585 0.02459942783819275
000650 4c 0b 49 52 03 89 b8 bf d9 e6 01 ac 50 c6 f3 3f
       -0.09584065207404285 1.235916778472918
000660 e0 43 0b d9 41 db ba 3f 93 c5 7a 8c 6b 6e a3 bf
       0.10490809964109316 -0.03795181360090818
000670 33 71 c3 ea 6c f2 a9 bf cd cc cc cc cc cc fc 3f
       -0.050677684457442494 1.8
000680 66 66 66 66 66 66 0e 40 cd cc cc cc cc cc 10 40
       3.8 4.2
000690 34 25 56 ce 60 78 d8 bf 30 45 b7 76 06 3b c5 bf
       -0.382347299099439 -0.16586380764651087
0006a0 a0 6e c0 47 ac c8 c4 bf f0 6e 43 96 7d a0 d6 bf
       -0.16237405303478614 -0.353545567266095
0006b0 bb 7f 73 d8 91 23 dc bf e0 fc e4 50 e6 58 d1 bf
       -0.43967100274857857 -0.27105100536205207
0006c0 db cf 46 9b 79 e4 d0 bf 43 ea a9 e4 69 93 91 bf
       -0.2639450088856827 -0.017163900929953135
0006d0 4a 05 22 09 1b 0b f4 3f 9f 1a 4f 5e 55 3d e5 3f
       1.2527113301042214 0.6637369958851486
0006e0 54 46 89 32 a2 b6 dd 3f f9 a4 88 f0 de 37 e8 3f
       0.4642720693128457 0.756820173065676
0006f0 3d 44 97 96 9a 68 f3 3f f8 56 ae 2b 78 59 e2 3f
       1.2130380518394894 0.5734215596337142
000700 fb d0 77 99 8d 29 e2 3f 73 6e 22 47 68 9f d1 3f
       0.567572402708293 0.2753544516251402
000710 65 71 fd ed df 38 dd bf 45 7d 89 d2 f0 eb c9 bf
       -0.4565963577386099 -0.20251283912782916
000720 7d bd 7e 82 cf 69 c4 3f d6 dc 24 98 81 66 d5 bf
       0.15947908279256842 -0.33438148362934095
000730 cf 6f 71 e7 a7 7e da bf 65 ff e7 69 14 11 d6 bf
       -0.4139804611384052 -0.34479246466070484
000740 0f 9b f7 0b 8b e1 c8 bf 7b 09 22 eb a3 44 b6 bf
       -0.19438303074203886 -0.08698486795950615
000750 46 f8 fc 4a c9 a9 bc 3f 46 7d 89 d2 f0 eb c9 bf
       0.1119657333447047 -0.2025128391278292
000760 df 2c 16 c7 99 1a c7 3f b7 16 3b a4 16 99 d9 3f
       0.18049928875948404 0.399968777066856
000770 06 7e f3 28 47 49 e8 3f 67 94 fe c5 2c a7 d4 3f
       0.7589450645281779 0.3227035459079332
000780 53 54 f1 5b 4f 91 c7 3f ee e1 0d 00 96 95 94 bf
       0.18412200917615226 -0.020101875069913726
000790 f6 28 5c 8f c2 f5 02 40 33 33 33 33 33 33 0b 40
       2.37 3.4
0007a0 00 00 00 00 00 00 08 40 09 be fc d3 a0 35 d8 bf
       3.0 -0.3782732076824407
0007b0 30 45 b7 76 06 3b c5 bf 49 5f 7a f7 f7 cb b5 bf
       -0.16586380764651087 -0.08514356414741288
0007c0 49 4d 30 7e 92 07 d8 bf 1f 08 64 64 14 7e dc bf
       -0.3754621727286645 -0.4451952915552528
0007d0 2f 44 71 94 83 bf d2 bf 30 bd 42 f8 3e 11 cf bf
       -0.2929390859254139 -0.24271380540947396
0007e0 03 37 84 74 84 60 a3 bf fe fb a9 7a 05 ae f6 3f
       -0.03784574434585688 1.4174856940805962
0007f0 26 7c 25 26 13 81 e9 3f f6 4a 32 9a 82 7b d6 3f
       0.7970062012717605 0.3512884622406739
