models/Layer_2/Data/Playerinputs23_24.npy (npy, 97848 bytes, 1 tensors)

array f8 [349, 35]
00000000: fd8c 60b7 7622 d6bf 457d 89d2 f0eb c9bf
00000010: 1139 7849 cab9 c4bf 96ec f762 a8e6 d1bf
00000020: 7bd4 8a45 373a d7bf 0a5e 0dc3 33f5 d3bf
00000030: 49b6 ace1 70c8 b0bf 1f0b 6b33 7239 c9bf
00000040: d27b 7792 da84 f93f b6cc e082 a0de f13f
00000050: 97b7 5058 4445 d33f 1594 7d6e dc25 943f
00000060: 1b51 fbe5 0023 eb3f d8a2 573a 0a0e d13f
00000070: 63e6 6672 8361 ec3f 1a1f e394 813d ca3f
00000080: 2ad2 6d17 604f dbbf 447d 89d2 f0eb c9bf
00000090: 74fe d3c7 1305 d3bf 6f5e ea87 9fda d6bf
000000a0: f24c 2458 217b ddbf 5595 2b8c e0cf d5bf
000000b0: 9e48 9a06 4401 c0bf 65ff 9f7f e862 bebf
000000c0: 0042 f31d caed b23f 467d 89d2 f0eb c9bf
000000d0: 78a8 08d3 860a c03f 0395 fb01 4413 d73f
000000e0: 514e 4c13 c7f5 ea3f 00f1 8f77 db61 a9bf
000000f0: 5e54 426a e8ed d13f 8cda 40db eb11 d4bf
00000100: 6666 6666 6666 0440 0000 0000 0000 0e40
00000110: 6666 6666 6666 0440 4084 a98b 9b0c d7bf
00000120: 457d 89d2 f0eb c9bf 8138 50ec 6faa c8bf
00000130: 0e12 33c8 e5c9 d5bf a65e d01d 9347 d8bf
00000140: 7c2e 9514 f68c d4bf 13c3 2df9 cafb c6bf
00000150: fff5 6436 4ab8 c0bf 9bb2 1878 5abc fa3f
00000160: f729 ea35 fce8 f03f c23c 66cb e9f5 d43f
00000170: 18e8 d6f3 570f e03f 2fa0 74db 6e58 f63f
00000180: 8ae1 55de ad0a e73f c0fa 2436 822b e93f
00000190: 783d dae3 86f2 db3f 5b55 f42b bdbe d9bf
000001a0: 457d 89d2 f0eb c9bf e7cf 8267 5285 d8bf
000001b0: a74c e32d 1568 cebf 82a0 8a96 dcb9 d8bf
000001c0: 0860 fe03 a1e6 cfbf 11f7 a751 4e8b d4bf
000001d0: 7573 4b51 8ab0 a0bf 5d02 dc51 668d e83f
000001e0: ea54 554d 01b7 d73f db76 c52f 8625 9ebf
000001f0: e40b f58f 5bf3 f13f 595e 7995 2c89 f03f
00000200: 0603 d650 d47c ec3f f30e 451b ad10 c23f
00000210: f773 0430 fba8 c73f 9a99 9999 9999 fd3f
00000220: 0000 0000 0000 1040 cdcc cccc cccc 0c40
00000230: a20f d4b6 da17 d9bf 457d 89d2 f0eb c9bf
00000240: 9429 c07c 5e70 cfbf e51d bab4 833e d7bf
00000250: 4d1e dacf 1bf9 dabf 3c48 d441 bd90 d5bf
00000260: b812 5d8f 48d0 cabf ec89 8dc6 6c00 c1bf
00000270: f304 bd38 c5b8 f93f 0d49 edc6 1a97 f03f
00000280: 2e76 0e14 86de d63f 89e0 0484 4e07 e73f
00000290: 658e c785 8f97 f73f 4efa 59f8 c411 eb3f
000002a0: 867c 5849 cb5e eb3f 60a0 0a63 0152 d83f
000002b0: ba6e 0dbc c296 dbbf 467d 89d2 f0eb c9bf
000002c0: 0efd efde b1de dcbf 1252 220e 8cff d9bf
000002d0: b2d2 8559 6c0d e0bf 887c 94fa e0c0 d4bf
000002e0: 0116 0c1f 68bc cfbf e83c f777 3fb5 abbf
000002f0: 4757 033c e432 c33f 467d 89d2 f0eb c9bf
00000300: 5096 bc8b 4607 ba3f 531f 2b19 0e6d d93f
00000310: 2f9b 7b37 0002 eb3f b61d 53e7 bd31 d33f
00000320: c974 69d6 3d87 b1bf 7096 ba52 b435 dbbf
00000330: 3333 3333 3333 fb3f 0000 0000 0000 1040
00000340: 0000 0000 0000 1340 d1ef b5ca a21d dbbf
00000350: 457d 89d2 f0eb c9bf 78d9 8c42 7bba d2bf
00000360: 0ecd 9bac 7fe7 d9bf 9ac7 c5c2 d6ee ddbf
00000370: f975 a400 ada8 d6bf 44d0 393f a214 d0bf
00000380: aa80 1422 c7fd b6bf 1f85 ef20 f0e1 f63f
00000390: e9ac 100a f2a2 eb3f a179 c760 f4fe d73f
000003a0: 6da6 e842 0b40 f13f 38c8 02c5 1ab8 f93f
000003b0: b1aa ee49 d8f6 ef3f e96f 501b e53f eb3f
000003c0: f606 9364 c69d b3bf 2cd2 6d17 604f dbbf
000003d0: 457d 89d2 f0eb c9bf 2787 6a40 543d d5bf
000003e0: 1b28 0046 5093 d6bf 2f0d a946 d4f0 dfbf
000003f0: 53e5 4376 23ed d6bf 17a1 9094 50a3 d4bf
00000400: e330 8a4b f5a7 a7bf 7ccf 4d16 71c4 d53f
00000410: 467d 89d2 f0eb c9bf f4c4 63c6 4ab5 d1bf
00000420: 9925 1a2f 3de6 ce3f c9eb c0d6 9deb ed3f
00000430: 6794 fec5 2ca7 d43f 3f54 7dd4 3d3a cabf
00000440: 7d14 1c01 a418 a7bf c3f5 285c 8fc2 f53f
00000450: 0000 0000 0000 1540 0000 0000 0000 1e40
00000460: d1e5 b1ea bea8 dbbf 447d 89d2 f0eb c9bf
00000470: a954 be4a 4754 d4bf 5b67 0799 d8ec d9bf
00000480: 949e 3ce5 94c6 dfbf f29c 9c37 a633 d7bf
00000490: 5563 eaa5 c2bb c8bf acb6 5e00 c30f babf
000004a0: a257 c6c9 8507 f33f 624b 3a42 345f e73f
000004b0: b7a0 aac7 2308 dc3f 3db4 c9fe c3ad f23f
000004c0: 407f 171f 4a1f f63f 8037 dbc1 a212 ef3f
000004d0: 49e7 37e5 1d29 f03f 1dc3 044b 453f c5bf
000004e0: 1e13 6b91 0d48 ddbf 467d 89d2 f0eb c9bf
000004f0: 168c 15ac cef5 c9bf e7a1 7463 ab4b d9bf
00000500: 43b3 5660 c7d0 dfbf df02 4009 b579 d6bf
00000510: 8424 342b 9ede 82bf 0d36 6b72 59b5 72bf
00000520: b1c1 53d2 668c a4bf 467d 89d2 f0eb c9bf
00000530: addb 6771 7ff9 b33f a138 3c05 8690 e33f
00000540: 8f9a a2cd c487 ea3f 145c 2aca 54e9 c33f
00000550: 8bbc eac9 ab79 b4bf f93a 3c8d ba1b b2bf
00000560: 3333 3333 3333 0140 6666 6666 6666 0e40
00000570: 0000 0000 0000 0840 edfd fd24 e220 dbbf
00000580: 447d 89d2 f0eb c9bf dd3e 2318 8dda d3bf
00000590: 2e1c 4d00 15dc d9bf 6c15 9356 4674 debf
000005a0: 24c0 97d5 98fa d6bf 4a28 51a9 db35 c7bf
000005b0: 13bb 370a fc90 b2bf 7c14 a5e4 b23a eb3f
000005c0: 984d 6ed5 f527 d53f 63da aa3a 4626 dc3f
000005d0: 2d71 c587 3d0c ef3f f3ad ea01 4d64 f03f
000005e0: 347a 7a49 3b14 e83f 9aa7 ad31 f869 f03f
000005f0: 32ff e352 eb42 c5bf b3f2 3f11 ac47 dcbf
00000600: 447d 89d2 f0eb c9bf 76a1 5e87 e4d2 d9bf
00000610: a4a0 7d12 bddf d9bf 3660 8dd7 c48a debf
00000620: 32c5 c2cf 3a21 d7bf 411d 327d b1c3 d1bf
00000630: 202b 27ad 064a a8bf 694d 3dc3 31be bdbf
00000640: 467d 89d2 f0eb c9bf f471 48e5 ea55 cabf
00000650: d0d1 bafc 5af9 da3f 020f 74a7 79b2 e13f
00000660: 971f 6178 8205 c03f 778f 3a2a 270f bd3f
00000670: eaaf 02b5 0160 cdbf 8fc2 f528 5c8f fe3f
00000680: cdcc cccc cccc 0c40 0000 0000 0000 1040
00000690: 3804 7aaa 4bdb d7bf 34f9 0486 2d03 c6bf
000006a0: 92ca b7c7 8bd9 d1bf fbcc 4205 13f1 d8bf
000006b0: a1e5 9641 0f1e d9bf 84ef d5a2 03ca d2bf
000006c0: 32f5 1134 a740 cbbf 80b4 c35a e588 b4bf
000006d0: a894 d7cc dd63 e83f 12ec 970d 38e4 d03f
000006e0: 76ec 17f2 2cd0 db3f e4f2 9b06 5610 f03f
000006f0: af1d 8168 bfe3 ee3f 347a 7a49 3b14 e83f
00000700: de64 1adb aeee ed3f 2cc3 facf 9265 d23f
00000710: 2480 a2d6 a071 ddbf 447d 89d2 f0eb c9bf
00000720: 7339 f7f3 8622 d8bf 32c9 8add f42c dabf
00000730: 5eee b186 fd11 e0bf 31c5 c2cf 3a21 d7bf
00000740: 3dbb 6cea 16f4 d3bf c3c0 ee21 cbcf a9bf
00000750: c785 5743 7080 df3f 21af 449d b36b d93f
00000760: 35ab 7793 5a62 b4bf eaf9 fa21 31ec 91bf
00000770: 1c21 09a5 348b ef3f ff34 910d c094 b0bf
00000780: cf8b ea76 e212 ce3f f10c 37cc c6e6 cdbf
00000790: 3333 3333 3333 fb3f 0000 0000 0000 1040
000007a0: 0000 0000 0000 1240 c70c e1e2 1ddc d5bf
000007b0: 4b6c b0ec 63f7 babf c3d8 2cd5 543a cebf
000007c0: 38bc 3b61 524f d7bf 288a 5afd fbeb d4bf
000007d0: c86a ee2f 15e0 d0bf 99d3 2df7 0a5b cfbf
000007e0: ccc3 088c f559 c6bf 4c25 be94 c3e6 f33f
000007f0: d9e9 637a 761b e33f 7d60 589e d745 d73f
-0.34585349948811467 -0.20251283912782916 -0.16191986644157244 -0.27970323243034423 -0.36292821685066884 -0.31184095428531633 -0.06555848607669036 -0.19706561575557033
1.5949350091320764 1.1168522941996293 0.30110272049466275 0.019675678485686705 0.8480228893118097 0.26648193070881865 0.8869034990704673 0.20500201959497916
-0.42671968734728927 -0.20251283912782914 -0.2971848918386748 -0.35709369919775374 -0.4606402741203076 -0.3408128136491844 -0.12503862688442252 -0.11869671932072164
0.07394088011938749 -0.2025128391278292 0.12532124809633038 0.36055088227870175 0.8425021531024389 -0.049574716897014426 0.2801457441031 -0.3135938302179191
2.55 3.75 2.55 -0.3601445068252964 -0.20251283912782916 -0.19270133055437458 -0.3404478507111727 -0.3793685713912772
-0.3211035920146299 -0.1795591084187654 -0.13062408119178312 1.6709847155827109 1.0568811517756538 0.32750935424060057 0.5018729937066864 1.3965900967105076
0.7200536100854589 0.7865611131199657 0.43667766810627695 -0.4022667817347007 -0.20251283912782916 -0.38313732250685323 -0.23755135288829374 -0.38634409619636056
-0.2492257375240572 -0.32100255941610195 -0.032596895621941714 0.7672607039276717 0.37054474403460225 -0.029440018335086342 1.1219134925202008 1.0334897841293211
0.8902379587962919 0.14113391715556353 0.18484439701651897 1.85 4.0 3.6 -0.3920809541161764 -0.20251283912782916
-0.2456167325147588 -0.3631905808365146 -0.42145438478516867 -0.33695918491969556 -0.20948130607771076 -0.13282546706166387 1.607609960207182 1.036890770967662
0.35733177145616224 0.719641931390485 1.4745021081697811 0.8459191179861791 0.8553215439350346 0.38000521347067284 -0.431076701779357 -0.2025128391278292
-0.4510922124026856 -0.40622235660819783 -0.5016385792246949 -0.32427238913255296 -0.2479372169110974 -0.05411718692232076 0.14999058657002193 -0.2025128391278292
0.10167351638355027 0.3972811933313 0.8439942439698366 0.2999109992055894 -0.06846987232843839 -0.4251528556727413 1.7 4.0
4.75 -0.4236838321301067 -0.20251283912782916 -0.29263192652742687 -0.40475456100757945 -0.46770257015952554 -0.3540451532624896 -0.2512593858184611
-0.08980984289201169 1.4301606451557018 0.8636408039650664 0.3749361939534542 1.0781357396721447 1.6074474044549003 0.998882431410797 0.8515496762734048
-0.07662620501926284 -0.4267196873472894 -0.20251283912782916 -0.3318682316840857 -0.3527413066482283 -0.4990740480463555 -0.35822378682458583 -0.32246794231697734
-0.04620329424969485 0.340114852696608 -0.2025128391278292 -0.27669019102093206 0.24140133666905397 0.9350117868810851 0.3227035459079332 -0.2049023902460778
-0.045109868178806224 1.36 5.25 7.5 -0.4321744243566999 -0.20251283912782914 -0.3176439504544058 -0.4050809378073745
-0.4964954603806089 -0.3625274222453775 -0.19322999097200957 -0.10180300482781018 1.1893365747286926 0.7303715985784545 0.4379968118542012 1.1674232437756153
1.3826390471003407 0.9710248743301548 1.0100382760851565 -0.16599336779611287 -0.45752276612283704 -0.2025128391278292 -0.20281394388720803 -0.39524349892101757
-0.497117847519622 -0.351178416283842 -0.00921367234561133 -0.004567479517118678 -0.040133679556564224 -0.2025128391278292 0.0780257846707701 0.6113920309305919
0.8290733352958614 0.1555582034240791 -0.07998155288327007 -0.07073560665251567 2.15 3.8 3.0 -0.4238820420505068
-0.20251283912782914 -0.3102143035621177 -0.40405774144568596 -0.47584684805436583 -0.3590452276102971 -0.1813311173194186 -0.07252478837447666 0.8509153810233694
0.3305639824186186 0.4398360798763063 0.9702441837103258 1.0244875025626896 0.7524696765065699 1.0258714619217018 -0.16610471293824386 -0.44187452015448087
-0.20251283912782914 -0.40349686832134724 -0.40428091817603673 -0.4772197823526797 -0.36140318192618104 -0.27756917215488747 -0.047439774166909254 -0.1161833860071987
-0.2025128391278292 -0.2057469958825916 0.4214694469513036 0.5530365248273201 0.1251681411542875 0.11351246624923116 -0.22949239099887048 1.91
3.6 4.0 -0.37275973938091367 -0.17197197956006394 -0.2789029550905663 -0.38971400750888535 -0.3924596920511139 -0.2935799684707876
-0.21291055719840696 -0.08021386590890422 0.7621907234976293 0.2639293797253127 0.43458102838457735 1.0039882906123063 0.9653012314892545 0.7524696765065699
0.9353861121518567 0.28744955358984003 -0.4600603195231108 -0.20251283912782914 -0.3771073706128824 -0.40899392733549 -0.5021960860025947 -0.361403181926181
-0.3117730416587852 -0.050413463489691356 0.4922142655978771 0.3971985851119247 -0.07962576008109752 -0.017502563189504196 0.9857428763726008 -0.06476974803191025
0.2349513130803573 -0.23360524150312004 1.7 4.0 4.5 -0.3415598598114226 -0.10533737686675797 -0.23615513237900218
-0.36421641822284156 -0.3269033407360973 -0.26367692642967855 -0.2449659068039665 -0.1746203359375883 1.2438388643516474 0.5971023931918423 0.36363783324623694
