models/Layer_2/Data/Playerinputs21_22_NH.npy (npy, 89168 bytes, 1 tensors)

array f8 [318, 35]
00000000: 312c 909f 4ae7 dcbf 457d 89d2 f0eb c9bf
00000010: b69f aeb1 7396 cebf 307c 630a bc85 d9bf
00000020: ae8f e2ad a547 e0bf e244 489e 41c6 d3bf
00000030: 0f71 3476 ca02 cdbf b954 3a9e d574 b1bf
00000040: 59f4 c87f 71e6 d03f 467d 89d2 f0eb c9bf
00000050: 4304 48d6 559f e03f e63e 9b70 99cb d83f
00000060: f9d5 3119 6672 d33f e15e 06d1 1241 933f
00000070: f045 97d6 4775 eb3f 1346 ce7c 12dd df3f
00000080: 2115 c1da 18cc dcbf 457d 89d2 f0eb c9bf
00000090: bba3 924f df16 d7bf 32c9 8add f42c dabf
000000a0: cf3e 1159 c3d5 ddbf ba7b 529c 4b98 d7bf
000000b0: dbaa 2f91 3e34 ccbf e272 5a2d 5ce1 b2bf
000000c0: 54fc 0e4b 5b00 f13f 21af 449d b36b d93f
000000d0: c302 4bd8 ae02 b83f 6b27 ecc5 b226 d43f
000000e0: 358d 823c 6b01 f73f d5bd 45a1 6bf7 c13f
000000f0: 94da 6c46 9958 ae3f 18f0 1a9a 3bdb b0bf
00000100: 9a99 9999 9999 0340 6666 6666 6666 0a40
00000110: 3333 3333 3333 0740 28a5 5cd3 6a83 dabf
00000120: 457d 89d2 f0eb c9bf ff84 4359 e47d cabf
00000130: 9c36 c2ec 28bf d7bf 3b50 2c1d 49ad dcbf
00000140: 5220 ecf4 3a3a d1bf 8666 b53d fbd7 cebf
00000150: deab 2071 9181 acbf 3e13 d65e bb16 f03f
00000160: 20af 449d b36b d93f 9ab8 a264 793e e03f
00000170: 2418 63e2 bf91 d93f eddf a5fb 34d9 e43f
00000180: d03a c42d 8cfa d13f a6f1 8411 d030 e13f
00000190: 7887 de31 31eb bc3f b2eb 0f7e 2e8f dcbf
000001a0: 457d 89d2 f0eb c9bf fafa caca c621 d2bf
000001b0: bb57 4329 f6f6 d8bf 1495 826a 6c20 dfbf
000001c0: ba7b 529c 4b98 d7bf 847f 8edd 93db d0bf
000001d0: 6545 8759 fa20 b4bf 3418 1578 7011 dd3f
000001e0: 6906 cde0 885f 65bf 1d84 942c 2b59 b0bf
000001f0: e68b 3cc4 9f99 b33f 2b73 373f dbab f63f
00000200: b4e7 65b0 1bc6 c83f 7976 0499 1eaf bcbf
00000210: ece4 3410 0033 afbf 3333 3333 3333 ff3f
00000220: cdcc cccc cccc 0c40 6666 6666 6666 0e40
00000230: c1e4 edbe 7f36 dbbf 457d 89d2 f0eb c9bf
00000240: 17cc 0431 c2c4 bbbf eaa3 a86a 264e d8bf
00000250: 0117 58a3 8ade dcbf 1a96 0526 b086 cebf
00000260: 3ada 8987 6b73 ccbf 80bf db19 475c 55bf
00000270: 4162 ee3a d765 ea3f 20af 449d b36b d93f
00000280: 5bba c9de 4c2c d93f 9a10 81b1 2b7a e93f
00000290: c46d ae16 d38a ea3f 760a 2e98 6ecd e13f
000002a0: af61 d24b 99af de3f 9118 cd5f 2284 afbf
000002b0: dec3 5693 95bd dbbf 457d 89d2 f0eb c9bf
000002c0: d3cd f59b 69c7 d7bf 545f e994 2450 d8bf
000002d0: ec9c ee76 3278 debf 7991 3e22 ecbd d1bf
000002e0: 444f 73ef 9909 d2bf ecf8 ea41 d58a 9ebf
000002f0: aba1 bfee b097 d73f 9019 133d 6bec aabf
00000300: 8e40 445e a57a b43f 0dad 8928 3b5a e63f
00000310: 055b 055d 71e3 ea3f bf61 e7ff 9b41 de3f
00000320: 02eb 7d6f d596 c6bf cc87 b7f2 4a7e 603f
00000330: 6666 6666 6666 0040 0000 0000 0000 0c40
00000340: cdcc cccc cccc 0c40 20f3 8162 675e dbbf
00000350: 457d 89d2 f0eb c9bf 6ac9 5957 c8fd bebf
00000360: 6be7 ed84 bf5a d8bf a014 0ce7 0e51 ddbf
00000370: 7642 638c b297 cebf f2dc e9d0 8935 cbbf
00000380: 489a 4c61 f5e6 7abf 584b 2727 774f eb3f
00000390: 20af 449d b36b d93f 3e1f a6cb 72ad d93f
000003a0: 5945 bf5d 776c e83f 36ec 0f8e 3e59 e93f
000003b0: 66a6 9190 e486 dd3f 3418 f24b 3b4d e23f
000003c0: 5be0 6b3b f158 b53f 2cd2 6d17 604f dbbf
000003d0: 457d 89d2 f0eb c9bf e824 74b9 58c1 e73f
000003e0: 4c29 8c7d 1ab0 d7bf 4ecc 4ec6 d5ba debf
000003f0: 7ab7 f7cb 516f d3bf c86d c57f bc2a c3bf
00000400: 970c ed13 1ed5 d2bf 7134 91d2 2c3c 0240
00000410: 710e e7d1 afe6 ef3f 9d73 f4ef 17ae f53f
00000420: ba80 0e45 d73a fc3f 8d27 baee 1894 f73f
00000430: e628 f2b7 309f 0040 d8b8 93d5 3185 e33f
00000440: 7dd6 d581 6e47 c83f 0000 0000 0000 1540
00000450: 6666 6666 6666 0e40 6666 6666 6666 fa3f
00000460: 46a8 07a5 6f68 dcbf 457d 89d2 f0eb c9bf
00000470: 0232 aafb eb9d c1bf 9799 ffbe 9d89 d7bf
00000480: 0c45 515f 472c debf 9035 8af4 e770 d0bf
00000490: b1d7 6e01 240a cdbf 7619 e77a df85 603f
000004a0: 7530 eeec 372f e23f 60a7 4437 91a6 cf3f
000004b0: 04e9 5ea5 beaf da3f debf 36c9 fb16 eb3f
000004c0: 9227 48cc 8cb2 ea3f f4bd ad04 6541 e13f
000004d0: f831 5b82 963d e43f 93c2 b82e 6133 cd3f
000004e0: 0e1a cb97 1243 ddbf 467d 89d2 f0eb c9bf
000004f0: 4599 79b0 6b05 abbf 30c9 8add f42c dabf
00000500: 05b7 19fc 724c e0bf b97b 529c 4b98 d7bf
00000510: 2fdb 07ae bcc4 c4bf 5571 dd3b 3776 bbbf
00000520: 8d0d 0d69 e3ee cc3f 467d 89d2 f0eb c9bf
00000530: c905 3360 6a11 c33f 30c9 8add f42c dabf
00000540: 06b7 19fc 724c e0bf b97b 529c 4b98 d7bf
00000550: 10cb 92db a42b bcbf 534e 2dc0 5a3d adbf
00000560: 3333 3333 3333 0340 6666 6666 6666 0a40
00000570: 0000 0000 0000 0840 595e 4410 0073 d9bf
00000580: 35d3 ab0d 4167 c6bf 3228 c18c 2f8d c2bf
00000590: 2436 d767 887a d7bf f279 af27 923f dcbf
000005a0: dcd7 a02e c1c8 cfbf 98ba 04be 66bc cebf
000005b0: 92c6 0e4c 6251 993f 2082 c80c f786 ec3f
000005c0: fae5 6347 e538 d63f 0606 6f50 298d d93f
000005d0: fc2f 0c32 b5f6 ed3f 09fc 05e9 11aa eb3f
000005e0: 4869 4c32 e553 e53f 14d3 1c83 1065 e13f
000005f0: 9892 6085 b856 ba3f 0c9b 6761 8ac5 dfbf
00000600: 457d 89d2 f0eb c9bf d162 e425 6661 cfbf
00000610: 9161 f72b 9f67 d9bf e8a3 aa36 c9bd dfbf
00000620: 6d01 090c 2c3a d4bf 9784 ffde 94a1 cdbf
00000630: e8a2 efdb f403 79bf 374e 6176 9a37 ee3f
00000640: 3ac1 812f 1ecb e83f 12eb 42a8 9730 993f
00000650: 4c0b 4952 0389 b8bf d9e6 01ac 50c6 f33f
00000660: e043 0bd9 41db ba3f 93c5 7a8c 6b6e a3bf
00000670: 3371 c3ea 6cf2 a9bf cdcc cccc cccc fc3f
00000680: 6666 6666 6666 0e40 cdcc cccc cccc 1040
00000690: 9498 109f 336c d9bf 35d3 ab0d 4167 c6bf
000006a0: 3c7c 110f 9b9f c5bf bf2e 0619 344d d7bf
000006b0: 04ea 93f5 fbcb dcbf b2f8 0ef1 bbeb d1bf
000006c0: aaa8 8b5e a5ea d0bf d059 0423 6c3f 99bf
000006d0: 643d 73d1 d643 ef3f 4678 25f3 819e dc3f
000006e0: ff91 2ea4 7e17 de3f d9ae 3bb6 0e51 e63f
000006f0: 55d1 d396 645e f03f 3a05 4a96 98f3 e03f
00000700: dbc6 b682 0d87 e13f 6492 7173 24d0 c73f
00000710: 6571 fded df38 ddbf 457d 89d2 f0eb c9bf
00000720: 7dbd 7e82 cf69 c43f d6dc 2498 8166 d5bf
00000730: cf6f 71e7 a77e dabf 65ff e769 1411 d6bf
00000740: 0f9b f70b 8be1 c8bf 7b09 22eb a344 b6bf
00000750: 46f8 fc4a c9a9 bc3f 467d 89d2 f0eb c9bf
00000760: df2c 16c7 991a c73f b716 3ba4 1699 d93f
00000770: 067e f328 4749 e83f 6794 fec5 2ca7 d43f
00000780: 5354 f15b 4f91 c73f eee1 0d00 9695 94bf
00000790: f628 5c8f c2f5 0240 3333 3333 3333 0b40
000007a0: 0000 0000 0000 0840 9399 e146 0b62 d9bf
000007b0: 35d3 ab0d 4167 c6bf 43ca 2b20 5d81 c1bf
000007c0: e56b c3a6 4abf d6bf 6a14 e9be 1ddf dcbf
000007d0: 965c c0a3 bfe8 d2bf 2d51 b25a 7907 d0bf
000007e0: 4205 5910 815b a2bf 72de 6d0c 2be4 f33f
000007f0: 01b3 44d0 444e e63f 599d b933 e24e da3f
-0.4516169126733898 -0.20251283912782916 -0.23896642852673516 -0.39878750814927155 -0.5087459942046644 -0.30897560555702175 -0.22664767047616194 -0.06818900216088054
0.2640651462459736 -0.2025128391278292 0.5194501099759993 0.38742671963426145 0.3038573499719344 0.018802923210016757 0.8580664817074517 0.49786817730009253
-0.4499570976516499 -0.20251283912782916 -0.3607710148885947 -0.40899392733549 -0.46617206285462215 -0.3686703707298268 -0.2203443726460453 -0.07375122172602347
1.0625870639776354 0.3971985851119247 0.09379093914595686 0.31486195877425044 1.437846409194049 0.1403631722891833 0.05926970467264883 -0.06584522735914822
2.45 3.3 2.9 -0.41427107468423907 -0.20251283912782916 -0.20696691855031443 -0.3710424720855856 -0.4480765137570903
-0.2691790954418184 -0.24096622956385633 -0.055676026401066045 1.0055497841396597 0.39719858511192463 0.5076262441196093 0.3995208464442632 0.6515145220755564
0.2809172102869697 0.5372085897611683 0.11296374766837214 -0.4462391120029522 -0.20251283912782916 -0.2833115559005105 -0.39007333783717585 -0.48635397340179165
-0.3686703707298268 -0.263401953090572 -0.07862820325614946 0.45418941237255983 -0.00260903104791126 -0.06386060560591074 0.07656286755495464 1.4169571370504837
0.19354578126131872 -0.11204711185242812 -0.06093597600779241 1.95 3.6 3.8 -0.42520135541378684 -0.20251283912782916
-0.10847104737040102 -0.37976990142720857 -0.4510828585774647 -0.23848535400900134 -0.22227233999338286 -0.0013037390085024192 0.8249317313194028 0.39719858511192463
0.3933288741745053 0.7961634127500645 0.8294463580127105 0.5563271496069564 0.47946770100090935 -0.0615549795098086 -0.4334463061196042 -0.20251283912782916
-0.3715461752937845 -0.37989153425359246 -0.47608625044308783 -0.2772169432085075 -0.28183601745444187 -0.029826481006915026 0.368633492615596 -0.05258498306789072
0.07999642898016843 0.6985145370248645 0.8402640168013426 0.47275447836502943 -0.17647808021487071 0.0020133460836726288 2.05 3.5
3.6 -0.42763695354351405 -0.20251283912782916 -0.12105991489969417 -0.38053882581117787 -0.458072400695821 -0.23900443892354745 -0.21257136059623566
-0.006567915454786695 0.8534503712383907 0.39719858511192463 0.4012114514120987 0.7632405119895039 0.7921440863277727 0.4613582050138575 0.5719276889146898
0.08338840199201185 -0.4267196873472894 -0.20251283912782916 0.7423518774168345 -0.37012350330828236 -0.4801535069083841 -0.303669404208328 -0.14974170912579
-0.29425765939613185 2.2793823671877864 0.9969100093516784 1.3550032971608978 1.764365453484102 1.4736565900115892 2.077729641988401 0.6100091144014881
0.18967992152800042 5.25 3.8 1.65 -0.44387427440836225 -0.20251283912782916 -0.13763189113923607 -0.36777442600432536
-0.4714525633654183 -0.2568912399372829 -0.22687196798295653 0.0020169606061443647 0.5682639720485115 0.24727072905198622 0.41697660588728547 0.8465556077917389
0.8342956533317525 0.5392327395801986 0.6325180574436322 0.22813048154195723 -0.45721878837176255 -0.2025128391278292 -0.052775731365545066 -0.4089939273354899
-0.5093321727597134 -0.3686703707298267 -0.16225393769828986 -0.10727257930324659 0.22604029302065634 -0.2025128391278292 0.14896897980911053 -0.4089939273354899
-0.5093321727597135 -0.3686703707298267 -0.11004095421484927 -0.057108722647765696 2.4 3.3 3.0 -0.3976440581186345
-0.17502606551684044 -0.14493364689616467 -0.3668538106984178 -0.4413800609162585 -0.2483140447308746 -0.24012455251928055 0.02472451771945445 0.8914752244637079
0.3472226330919451 0.3992408071027004 0.9363656976215675 0.8645104933965523 0.666491125334951 0.5435869751732718 0.10288575416832157 -0.4964319182603709
-0.20251283912782916 -0.24515988207055853 -0.3969495705946651 -0.4959586175778541 -0.31605054068861343 -0.2314935768945687 -0.006107288819273228 0.9442875206099818
0.7747946670406585 0.02459942783819275 -0.09584065207404285 1.235916778472918 0.10490809964109316 -0.03795181360090818 -0.050677684457442494 1.8
3.8 4.2 -0.39722910436319947 -0.17502606551684044 -0.16893327937848024 -0.3640871281029198 -0.4499502084942437 -0.28001307049624835
-0.2643216536804497 -0.024655999791400707 0.9770311442206716 0.44717453713190414 0.4701840022410408 0.697394710468383 1.0230451480575387 0.5297358451208887
0.5477359345443021 0.18603950154205784 -0.4565963577386099 -0.20251283912782916 0.15947908279256842 -0.33438148362934095 -0.4139804611384052 -0.34479246466070484
-0.19438303074203886 -0.08698486795950615 0.1119657333447047 -0.2025128391278292 0.18049928875948404 0.399968777066856 0.7589450645281779 0.3227035459079332
0.18412200917615226 -0.020101875069913726 2.37 3.4 3.0 -0.396609133930178 -0.17502606551684044 -0.13676036902286812
-0.35542551312909004 -0.4511179317817723 -0.2954558467039957 -0.2504561792095668 -0.035854371305058766 1.2432051167978924 0.6970542972318016 0.4110646729590904
