models/Layer_2/Data/Playerinputs20_21_NH.npy (npy, 89728 bytes, 1 tensors)

array f8 [320, 35]
000000 ca 7f 76 8a 6e d6 da bf 45 7d 89 d2 f0 eb c9 bf
       -0.41933787843481396 -0.20251283912782916
000010 1d 8b c2 25 5c e6 ac 3f 55 18 75 e3 f0 28 d6 bf
       0.056445006951682176 -0.3462488385451981
000020 46 85 50 77 18 df dd bf bc ff 97 91 cc de d4 bf
       -0.46674167300996705 -0.32609857767237904
000030 92 13 ca b0 2e 22 c1 bf 48 43 6e 23 ca 18 c1 bf
       -0.13385566360753082 -0.1335690186502012
000040 60 77 1f d2 14 0f e1 3f c0 99 1e a3 6a cc 91 3f
       0.5330909828150929 0.017381349760080544
000050 13 8c aa ba 40 1c e9 3f e4 a7 aa 59 e9 e6 df 3f
       0.7846988340210167 0.49846872097498207
000060 66 18 47 96 dc 18 df 3f 66 03 07 7c 5a a7 e0 3f
       0.48589243579443175 0.5204288885507651
000070 c8 ad b4 56 b7 26 c5 3f 74 cd 33 9b 0b 7b cb bf
       0.16524402364426138 -0.21469254568328788
000080 c5 2f 6e 6d 30 0c db bf 46 7d 89 d2 f0 eb c9 bf
       -0.422618967881814 -0.2025128391278292
000090 d2 c6 18 fb 55 28 ca bf df aa dd 33 fa e0 d9 bf
       -0.20435595284066338 -0.40435652794864824
0000a0 ef 2a 0a 3f 8a 44 e0 bf a6 66 ea e1 34 f7 d6 bf
       -0.5083667021984563 -0.35883829176018833
0000b0 36 68 6e 36 a7 a6 d2 bf 38 90 7d cd 9e 68 a7 bf
       -0.2914217025332876 -0.04572006472042783
0000c0 6a 32 88 d2 e3 10 c8 3f 46 7d 89 d2 f0 eb c9 bf
       0.18801543979533913 -0.2025128391278292
0000d0 2f 69 09 15 a0 e0 af 3f 9f c0 3a 12 12 c6 bc 3f
       0.06226063019558336 0.11239731736236756
0000e0 cd 08 16 40 0f 29 d3 3f 17 fe d5 60 24 a5 93 bf
       0.2993810773697419 -0.01918465462722282
0000f0 56 3b a6 b5 5f 01 94 bf ef 10 fa d2 c3 b2 74 bf
       -0.019536490880962397 -0.005053296030045325
000100 66 66 66 66 66 66 f6 3f 00 00 00 00 00 00 12 40
       1.4 4.5
000110 00 00 00 00 00 00 20 40 64 44 ec a9 ea 6c dc bf
       8.0 -0.44414774507555976
000120 46 7d 89 d2 f0 eb c9 bf ea ec 5e 87 08 c0 c7 bf
       -0.2025128391278292 -0.18554789171125857
000130 1c cf ef fd ae 0e da bf e5 7b 59 bc b9 f4 de bf
       -0.4071462135172952 -0.4836868609763186
000140 55 6d 1f 17 3f 41 d5 bf 95 8d aa e6 8c 1b cb bf
       -0.33210732706148366 -0.2117782713222424
000150 39 ce e8 20 c4 9c b1 bf ff 4d e9 6a 1a 58 fb 3f
       -0.068798311266442 1.709009568808028
000160 71 0e e7 d1 af e6 ef 3f 56 46 89 32 a2 b6 dd 3f
       0.9969100093516784 0.4642720693128458
000170 e3 a3 2a 8d 17 a6 eb 3f d6 88 93 57 cb a9 f3 3f
       0.8640249020728529 1.2289536877583962
000180 9d 14 eb 5f 65 66 e9 3f 83 92 12 d7 b0 ad f1 3f
       0.7937495110897036 1.1049049760123644
000190 70 a2 47 7f 84 3e bb 3f 2d 11 52 d6 77 d0 da bf
       0.10642269236962831 -0.4189738839125024
0001a0 45 7d 89 d2 f0 eb c9 bf 37 ae 5e f3 eb 36 c9 bf
       -0.20251283912782916 -0.19698857672971012
0001b0 05 78 c5 27 42 08 d4 bf 9c 2a 3f 11 3d 57 de bf
       -0.3130040539161885 -0.47407461818935714
0001c0 eb 53 0d 9c e2 6c d4 bf d7 f5 c2 d6 04 bc d0 bf
       -0.31914582480868486 -0.26147576306160886
0001d0 bb 41 ff 2a f1 f7 a4 bf a0 6f 67 f7 55 bd c3 3f
       -0.04095414781443504 0.15421557026172383
0001e0 46 7d 89 d2 f0 eb c9 bf 35 ae 5e f3 eb 36 c9 bf
       -0.2025128391278292 -0.19698857672971007
0001f0 4f f1 53 b0 1a 52 c8 bf 07 79 2b da 6b 77 e4 3f
       -0.1900056229568556 0.6395777951363762
000200 05 cd 69 ab 02 71 b9 bf 89 b4 88 2f a1 dc bd bf
       -0.09938065228361743 -0.11664779100893176
000210 b0 fd db c9 17 ef 9f bf 33 33 33 33 33 33 01 40
       -0.031185504622951832 2.15
000220 cd cc cc cc cc cc 0c 40 9a 99 99 99 99 99 09 40
       3.6 3.2
000230 98 dd e0 f2 ed 6b db bf 45 7d 89 d2 f0 eb c9 bf
       -0.4284624931201164 -0.20251283912782916
000240 5b 2a 06 fc 80 c1 c6 bf ee 8d c6 ff 9c 6a d6 bf
       -0.1777802687250468 -0.3502571580704331
000250 ac 1a ab ed 0b 96 de bf 88 f4 b8 59 c5 6c d6 bf
       -0.4779081173877937 -0.35038884889565525
000260 95 50 9c 16 a1 60 c9 bf 22 94 ad 59 fe ec ab bf
       -0.1982613907245009 -0.054542492339159546
000270 06 4a 77 44 3b 4e f1 3f 6b 41 06 49 50 d1 df 3f
       1.081599490590294 0.4971504891518836
000280 76 1b cd 9b 51 f0 da 3f 54 68 ae f9 a7 d6 ec 3f
       0.4209178945060822 0.9012031437480439
000290 ca c3 0a bc ec b3 ec 3f 02 34 43 6b 69 81 ee 3f
       0.8969634697624482 0.9532973380061096
0002a0 bc 33 f1 00 b8 d1 ef 3f d6 1e 48 fa e3 d6 eb 3f
       0.9943504351045855 0.8699817550959448
0002b0 22 15 c1 da 18 cc dc bf 45 7d 89 d2 f0 eb c9 bf
       -0.44995709765164993 -0.20251283912782916
0002c0 9e 9a fd 77 a7 05 dc bf 3a 0f e0 8c 9d ef d5 bf
       -0.4378451034339522 -0.342749965260953
0002d0 e7 63 75 57 2b 5f df bf 60 d5 53 57 f7 bc cf bf
       -0.4901836732947786 -0.24795429004704328
0002e0 04 6d 39 93 f8 33 ce bf 3f e2 e4 82 f1 83 a3 bf
       -0.23596102894484983 -0.03811602328136531
0002f0 d3 7b 77 92 da 84 f9 3f 71 0e e7 d1 af e6 ef 3f
       1.5949350091320766 0.9969100093516784
000300 67 c0 87 7a 31 1f c9 3f 18 7c 94 6e 98 37 e2 3f
       0.1962644432346707 0.569286552406882
000310 d4 ba 67 ed a6 a3 ef 3f d1 e5 57 1f 57 f2 db 3f
       0.9887270581073957 0.4366662794196517
000320 1f 8f e7 a7 9f f6 c2 bf cb 03 b3 0b 61 85 a6 bf
       -0.14815135668242704 -0.04398635165990291
000330 00 00 00 00 00 00 fc 3f 66 66 66 66 66 66 0e 40
       1.75 3.8
000340 00 00 00 00 00 00 12 40 80 8a fd 2f d8 46 dc bf
       4.5 -0.4418240040451238
000350 45 7d 89 d2 f0 eb c9 bf 36 fe f0 45 8c 73 c4 bf
       -0.20251283912782916 -0.15977624335390467
000360 42 c2 be e7 29 79 d7 bf e8 6b c1 23 b0 3b df bf
       -0.36677024489748444 -0.48801806918862534
000370 f1 13 09 b2 c1 93 d6 bf 52 4e 09 1e 5c 2a c6 bf
       -0.3527683485629601 -0.1731677195226547
000380 1c 52 45 86 9e 4c a0 bf a2 57 c6 c9 85 07 f3 3f
       -0.0318345583824888 1.1893365747286926
000390 a7 10 1b 65 71 af dd 3f 8d 67 5a a9 0d 55 d8 3f
       0.4638331878052306 0.38019124544518307
0003a0 a0 a4 76 40 ef b1 f4 3f 7b 0f 1f 0e b1 96 e8 3f
       1.293441058931684 0.7683949733550287
0003b0 6a 52 fa e7 cb 73 f5 3f e0 91 77 ac 1a 7a ed 3f
       1.340770631945953 0.9211552971360639
0003c0 b3 93 00 24 83 89 e7 3f 4b 09 74 cd 35 d9 d6 bf
       0.7355361655396478 -0.3570074564342078
0003d0 45 7d 89 d2 f0 eb c9 bf dd 5a 90 3b b6 33 e0 3f
       -0.20251283912782916 0.5063124812466772
0003e0 ac dc b4 d7 17 a6 b2 bf b2 ad 16 f7 d8 2e d2 bf
       -0.07284688011428625 -0.28410934571976576
0003f0 29 ab 34 55 8f dd af bf e2 30 f2 c1 26 11 b8 bf
       -0.06223724284276095 -0.09401170954714957
000400 11 c5 f7 69 5a 9e ca bf 91 49 a7 8f ff ca d2 3f
       -0.20795755552493536 0.29364003208788697
000410 46 7d 89 d2 f0 eb c9 bf ce 4d 65 3c d4 ec ef 3f
       -0.2025128391278292 0.9976597957233311
000420 4e 98 34 67 05 ce f3 3f 84 32 f5 4e eb a0 ed 3f
       1.2377981215918399 0.9258934538025447
000430 1e 64 6f 05 c0 65 ee 3f f2 62 90 42 e9 d0 ef 3f
       0.9499206644205775 0.9942518520429913
000440 70 b8 52 d7 51 fc f8 bf 00 00 00 00 00 00 1a 40
       -1.5616014872607842 6.5
000450 66 66 66 66 66 66 12 40 33 33 33 33 33 33 f7 3f
       4.6 1.45
000460 21 83 66 37 2d 72 dc bf 45 7d 89 d2 f0 eb c9 bf
       -0.44446878824423847 -0.20251283912782916
000470 b2 f6 39 2b 29 b9 c5 bf 3d c5 cd 17 bd 1f d8 bf
       -0.1697131596628672 -0.376937173124208
000480 fe f2 6f 8e 9b 6f df bf c1 40 ce b8 db b0 d6 bf
       -0.4911869898785851 -0.3545445732825208
000490 1f c4 c1 f9 c3 27 c8 bf c5 10 e6 b4 e6 83 a0 bf
       -0.18871354766045642 -0.03225632627712253
0004a0 a8 a7 cc 26 ab ac f2 3f 49 85 73 4f 0f 82 e1 3f
       1.1671554103472577 0.5471264411718632
0004b0 25 be a2 0e 6e e9 d7 3f ab db 5d 2e de a5 ef 3f
       0.3736224310805219 0.9889975457762054
0004c0 87 fe 69 90 ff 92 ed 3f 40 38 86 de 9d 32 f1 3f
       0.9241941280924529 1.0748575870852761
0004d0 67 8f 6b 0d f9 d8 ed 3f 4d df 1d 55 a1 19 de 3f
       0.9327359449493827 0.4703143435685789
0004e0 05 6d a1 4d 2c f4 dc bf 45 7d 89 d2 f0 eb c9 bf
       -0.45240314084158256 -0.20251283912782916
0004f0 8f 1b 7b 48 42 de d7 bf 30 c9 8a dd f4 2c da bf
       -0.3729406078168091 -0.4089939273354899
000500 71 86 ba c4 4b 3e e0 bf d3 22 78 53 1b 87 d2 bf
       -0.5076044885974637 -0.2894962611322118
000510 43 d4 73 7f 5d a8 d1 bf e1 33 25 20 87 01 a9 bf
       -0.2759011978772074 -0.048839781450261695
000520 78 d7 93 e1 5a de f5 3f 27 7c 25 26 13 81 e9 3f
       1.3667858897801732 0.7970062012717606
000530 83 e7 6a e1 60 28 cd 3f 71 96 93 95 d1 cd e6 3f
       0.22779475218504439 0.7126243516365333
000540 7a ac e8 6a 50 a8 e4 3f 10 74 1f 72 46 22 e1 3f
       0.6455461586059663 0.5354339817964746
000550 92 c4 b8 18 d6 36 d0 3f 23 b2 c7 94 d8 95 90 bf
       0.25334694303735106 -0.01619661720353539
000560 66 66 66 66 66 66 fe 3f 00 00 00 00 00 00 0e 40
       1.9 3.75
000570 66 66 66 66 66 66 0e 40 b5 16 20 3c b3 fa db bf
       3.8 -0.43717652198425166
000580 44 7d 89 d2 f0 eb c9 bf df b4 62 b3 3f 8a bc bf
       -0.20251283912782914 -0.11148450974970413
000590 86 47 41 84 d5 2c d6 bf 9a 46 1a e4 ac 5d df bf
       -0.3464864532044135 -0.49009248996399324
0005a0 bf 13 e5 7e 9e 94 d2 bf 2f 56 e5 62 e4 79 be bf
       -0.2903209914405202 -0.11904742636155484
0005b0 8c d0 87 69 86 b8 c1 bf 98 a4 c4 b5 6d 74 e9 3f
       -0.13844375756128036 0.7954624700697819
0005c0 fb e0 ff 67 76 eb b8 3f af a5 73 12 b7 69 d2 3f
       0.09734287299204773 0.287702339190754
0005d0 1c 1e d9 62 bd 23 e6 3f c6 76 07 3e 9d b8 f7 3f
       0.6918627672793636 1.4825718329442892
0005e0 c9 b6 3a 0a af fb eb 3f 51 51 79 d4 84 ef e2 3f
       0.8744731139938376 0.5917381429558565
0005f0 6e 37 8a e6 c2 9a e4 3f f5 52 1d 48 ad e6 da bf
       0.6438917639477333 -0.4203293995135902
000600 45 7d 89 d2 f0 eb c9 bf e4 d4 a7 e1 cc 67 c0 3f
       -0.20251283912782916 0.1281677343210169
000610 f6 ef cd 67 1e 1b d6 bf 18 d6 75 32 17 b6 db bf
       -0.34540519845154394 -0.43298892905963404
000620 ba 76 1d 92 79 d1 d2 bf ca 6e 21 ca 7a 26 cf bf
       -0.2940353323846058 -0.24336180562646909
000630 08 40 a0 cb c2 65 ba bf 72 de 6d 0c 2b e4 f3 3f
       -0.10311524840676622 1.2432051167978924
000640 26 7c 25 26 13 81 e9 3f 1b 73 cb 69 7d 31 e7 3f
       0.7970062012717605 0.724791247015307
000650 af f3 b9 a6 e5 d9 e0 3f 0c f9 50 44 d9 be ef 3f
       0.5265987640738014 0.9920469602873552
000660 44 47 68 ba b8 e5 df 3f 8d 49 f7 64 94 78 e4 3f
       0.4983960934051661 0.639719197463181
000670 96 ed 95 5f a7 10 e5 3f 9a 99 99 99 99 99 05 40
       0.6582829348475794 2.7
000680 33 33 33 33 33 33 0b 40 cd cc cc cc cc cc 04 40
       3.4 2.6
000690 f1 bb 49 2d 19 22 da bf e7 69 39 36 4f c8 c5 bf
       -0.40833119795473666 -0.1701754584090189
0006a0 f1 40 04 bf 99 9a bf bf 5e 14 93 74 3c 90 d4 bf
       -0.12345276750079727 -0.32130347618323707
0006b0 06 a7 29 ad 2f f8 db bf e4 f6 6e ee fd 49 d2 bf
       -0.43702308569355386 -0.28576610836522165
0006c0 83 54 ea 54 1d 4d bb bf d8 ee 04 e4 cd d0 5c bf
       -0.10664542506340706 -0.001758767190110191
0006d0 4a 12 3e c8 a0 a9 f9 3f a1 7a 98 74 3e d6 ea 3f
       1.603913099476943 0.8386528279550768
0006e0 01 4f 63 f4 29 6e d3 3f 6f b7 c2 34 2a 46 f2 3f
       0.303598869953234 1.1421300946198831
0006f0 55 a8 8b 39 84 bf f0 3f cc 64 59 08 fa 79 f4 3f
       1.0467569587585974 1.279779465307274
000700 0e 17 a2 6e d3 54 eb 3f aa 5c 13 f0 b2 c6 b1 3f
       0.8541047249607077 0.0694381557581091
000710 db ff 39 85 97 c1 db bf 45 7d 89 d2 f0 eb c9 bf
       -0.4336909104385975 -0.20251283912782916
000720 d9 0f 01 b9 94 75 d7 bf 5b a7 3b e7 27 d4 d9 bf
       -0.3665515715294965 -0.4035739668021187
000730 5b f2 3d 40 11 06 de bf db 00 57 ef 97 74 d5 bf
       -0.4691203238833503 -0.335241302233056
000740 74 bb d5 22 f2 a2 d2 bf e3 26 23 f7 2e de 9a bf
       -0.29119542505116347 -0.02623818763166853
000750 cf d4 d1 9d b7 d5 e5 3f 14 15 83 8b f4 40 c9 3f
       0.6823385317244631 0.1972947770320067
000760 30 a8 8f 0b 9f 53 c9 bf 0d b4 fc e6 0d 5f d0 bf
       -0.19786441864499826 -0.2558016544087998
000770 e4 7f 7e 66 f9 b7 e9 3f 31 c6 2f 4d 60 43 b8 3f
       0.8037077905501033 0.09477807888449587
000780 60 fe 3a 1a c5 57 c6 bf d6 b3 b1 98 53 5f c0 bf
       -0.1745535257414188 -0.12790913539666232
000790 00 00 00 00 00 00 02 40 66 66 66 66 66 66 0a 40
       2.25 3.3
0007a0 66 66 66 66 66 66 0a 40 4f 3c 1f 2c 11 e3 d3 bf
       3.3 -0.3107340746764224
0007b0 0d 00 aa 68 12 58 b5 bf 6c a1 ca 6f 45 79 c0 bf
       -0.08337512069010718 -0.12870090445108973
0007c0 64 43 fa 68 82 48 d3 bf 1d f2 bd ff f8 c7 d5 bf
       -0.30130062343328334 -0.34033036207964235
0007d0 44 c0 6e 92 d0 bd ce bf 16 ac a1 3a 10 80 ba bf
       -0.24016768598585447 -0.10351659232553376
0007e0 ce 12 3e 63 6b 05 93 bf b8 a4 fb fc a0 3a f7 3f
       -0.018575361187248167 1.4518136865756741
0007f0 7b b1 b7 1e 70 a3 e7 3f 54 e6 ad d7 e2 2f d4 3f
       0.7387009239151178 0.315422735809624
