models/Layer_2/Data/Playerinputs23_24_NH.npy (npy, 93368 bytes, 1 tensors)

array f8 [333, 35]
00000000: fd8c 60b7 7622 d6bf 457d 89d2 f0eb c9bf
00000010: 1139 7849 cab9 c4bf 96ec f762 a8e6 d1bf
00000020: 7bd4 8a45 373a d7bf 0a5e 0dc3 33f5 d3bf
00000030: 49b6 ace1 70c8 b0bf 1f0b 6b33 7239 c9bf
00000040: d27b 7792 da84 f93f b6cc e082 a0de f13f
00000050: 97b7 5058 4445 d33f 1594 7d6e dc25 943f
00000060: 1b51 fbe5 0023 eb3f d8a2 573a 0a0e d13f
00000070: 63e6 6672 8361 ec3f 1a1f e394 813d ca3f
00000080: 2ad2 6d17 604f dbbf 447d 89d2 f0eb c9bf
00000090: 74fe d3c7 1305 d3bf 6f5e ea87 9fda d6bf
000000a0: f24c 2458 217b ddbf 5595 2b8c e0cf d5bf
000000b0: 9e48 9a06 4401 c0bf 65ff 9f7f e862 bebf
000000c0: 0042 f31d caed b23f 467d 89d2 f0eb c9bf
000000d0: 78a8 08d3 860a c03f 0395 fb01 4413 d73f
000000e0: 514e 4c13 c7f5 ea3f 00f1 8f77 db61 a9bf
000000f0: 5e54 426a e8ed d13f 8cda 40db eb11 d4bf
00000100: 6666 6666 6666 0440 0000 0000 0000 0e40
00000110: 6666 6666 6666 0440 4084 a98b 9b0c d7bf
00000120: 457d 89d2 f0eb c9bf 8138 50ec 6faa c8bf
00000130: 0e12 33c8 e5c9 d5bf a65e d01d 9347 d8bf
00000140: 7c2e 9514 f68c d4bf 13c3 2df9 cafb c6bf
00000150: fff5 6436 4ab8 c0bf 9bb2 1878 5abc fa3f
00000160: f729 ea35 fce8 f03f c23c 66cb e9f5 d43f
00000170: 18e8 d6f3 570f e03f 2fa0 74db 6e58 f63f
00000180: 8ae1 55de ad0a e73f c0fa 2436 822b e93f
00000190: 783d dae3 86f2 db3f b69d ec2f cae9 d9bf
000001a0: 457d 89d2 f0eb c9bf c2a0 243b 367a d8bf
000001b0: e057 3271 346a cfbf d0fa 2583 a0ea d9bf
000001c0: 8a31 6f32 dd1c d1bf 6ae8 fd0f 4ea7 d4bf
000001d0: 4aed cf6d 5ad1 9fbf c246 ccbc 307e eb3f
000001e0: 4678 25f3 819e dc3f 5285 e928 a5e0 9dbf
000001f0: 9895 1304 b9a1 f33f 308e a817 9d54 f43f
00000200: ec9e adc5 b60c ee3f aac8 5e1a e3e6 c53f
00000210: 5889 05bd 22c0 d43f 9a99 9999 9999 fd3f
00000220: 0000 0000 0000 1040 cdcc cccc cccc 0c40
00000230: a20f d4b6 da17 d9bf 457d 89d2 f0eb c9bf
00000240: 9429 c07c 5e70 cfbf e51d bab4 833e d7bf
00000250: 4d1e dacf 1bf9 dabf 3c48 d441 bd90 d5bf
00000260: b812 5d8f 48d0 cabf ec89 8dc6 6c00 c1bf
00000270: f304 bd38 c5b8 f93f 0d49 edc6 1a97 f03f
00000280: 2e76 0e14 86de d63f 89e0 0484 4e07 e73f
00000290: 658e c785 8f97 f73f 4efa 59f8 c411 eb3f
000002a0: 867c 5849 cb5e eb3f 60a0 0a63 0152 d83f
000002b0: ba6e 0dbc c296 dbbf 467d 89d2 f0eb c9bf
000002c0: 0efd efde b1de dcbf 1252 220e 8cff d9bf
000002d0: b2d2 8559 6c0d e0bf 887c 94fa e0c0 d4bf
000002e0: 0116 0c1f 68bc cfbf e83c f777 3fb5 abbf
000002f0: 4757 033c e432 c33f 467d 89d2 f0eb c9bf
00000300: 5096 bc8b 4607 ba3f 531f 2b19 0e6d d93f
00000310: 2f9b 7b37 0002 eb3f b61d 53e7 bd31 d33f
00000320: c974 69d6 3d87 b1bf 7096 ba52 b435 dbbf
00000330: 3333 3333 3333 fb3f 0000 0000 0000 1040
00000340: 0000 0000 0000 1340 1c97 e0c5 d7de d9bf
00000350: 457d 89d2 f0eb c9bf 3caa 18bb 15a3 d0bf
00000360: f0d4 32da 49e7 d7bf d20a 77e3 ae41 dcbf
00000370: fdaf 3eb1 cefb d5bf 2f4f 0c7b 0138 cabf
00000380: 0fe6 4473 0edb bdbf cb82 51bd aa8a f73f
00000390: 0ae8 fcc8 85a9 ed3f 1ec9 a95e 88d0 d63f
000003a0: ccf4 399d 5c08 ea3f 4d80 8130 74ae f63f
000003b0: 60f4 bd7e e31a ea3f 880d 16b1 4c88 eb3f
000003c0: c05a cb0f 4079 79bf 2cd2 6d17 604f dbbf
000003d0: 457d 89d2 f0eb c9bf 2787 6a40 543d d5bf
000003e0: 1b28 0046 5093 d6bf 2f0d a946 d4f0 dfbf
000003f0: 53e5 4376 23ed d6bf 17a1 9094 50a3 d4bf
00000400: e330 8a4b f5a7 a7bf 7ccf 4d16 71c4 d53f
00000410: 467d 89d2 f0eb c9bf f4c4 63c6 4ab5 d1bf
00000420: 9925 1a2f 3de6 ce3f c9eb c0d6 9deb ed3f
00000430: 6794 fec5 2ca7 d43f 3f54 7dd4 3d3a cabf
00000440: 7d14 1c01 a418 a7bf c3f5 285c 8fc2 f53f
00000450: 0000 0000 0000 1540 0000 0000 0000 1e40
00000460: 3e0b 0248 3fbc dabf 447d 89d2 f0eb c9bf
00000470: 7ec6 f329 98d2 d2bf 661b 213e ebdc d9bf
00000480: 24f1 7269 2b2a debf 71b5 3cc3 eaaf d6bf
00000490: 4015 d15c a9f1 cbbf 7079 f65c 63a7 b7bf
000004a0: 133c c3ee 9a42 f53f 267c 2526 1381 e93f
000004b0: 04e9 5ea5 beaf da3f a083 9e1f 03f2 f13f
000004c0: 6485 4ce8 4e5f f83f 0533 a2dc c758 f03f
000004d0: b59e 4c16 0dbb ed3f 6a8d 7719 cace a53f
000004e0: 1e13 6b91 0d48 ddbf 467d 89d2 f0eb c9bf
000004f0: 168c 15ac cef5 c9bf e7a1 7463 ab4b d9bf
00000500: 43b3 5660 c7d0 dfbf df02 4009 b579 d6bf
00000510: 8424 342b 9ede 82bf 0d36 6b72 59b5 72bf
00000520: b1c1 53d2 668c a4bf 467d 89d2 f0eb c9bf
00000530: addb 6771 7ff9 b33f a138 3c05 8690 e33f
00000540: 8f9a a2cd c487 ea3f 145c 2aca 54e9 c33f
00000550: 8bbc eac9 ab79 b4bf f93a 3c8d ba1b b2bf
00000560: 3333 3333 3333 0140 6666 6666 6666 0e40
00000570: 0000 0000 0000 0840 0cc8 08df 3fa4 dbbf
00000580: 447d 89d2 f0eb c9bf 9e70 ce45 7183 d4bf
00000590: 88e2 aba3 ffee d9bf 7ab7 e90d 40ee debf
000005a0: 0b6f 4687 0522 d7bf b9ca ebad b506 cabf
000005b0: 3225 19fb 15b5 b6bf 1852 3fc4 6922 f03f
000005c0: 6b41 0649 50d1 df3f 0cde 5755 a4c8 db3f
000005d0: 9e24 7687 7e43 f03f 2b5d 0bf8 add0 f23f
000005e0: 9d66 3442 29d7 ea3f b62d 3ad3 2548 f03f
000005f0: 2e31 d535 d5a6 adbf b3f2 3f11 ac47 dcbf
00000600: 447d 89d2 f0eb c9bf 76a1 5e87 e4d2 d9bf
00000610: a4a0 7d12 bddf d9bf 3660 8dd7 c48a debf
00000620: 32c5 c2cf 3a21 d7bf 411d 327d b1c3 d1bf
00000630: 202b 27ad 064a a8bf 694d 3dc3 31be bdbf
00000640: 467d 89d2 f0eb c9bf f471 48e5 ea55 cabf
00000650: d0d1 bafc 5af9 da3f 020f 74a7 79b2 e13f
00000660: 971f 6178 8205 c03f 778f 3a2a 270f bd3f
00000670: eaaf 02b5 0160 cdbf 8fc2 f528 5c8f fe3f
00000680: cdcc cccc cccc 0c40 0000 0000 0000 1040
00000690: 8c0e 9d7c 6cf1 d8bf 381a 2659 5efd c6bf
000006a0: 9272 1a22 1b3c d2bf 4158 9956 352d d9bf
000006b0: 52a0 c478 65dd dabf 74ed ff79 c3e6 d3bf
000006c0: 0cf9 9376 488c cabf 8c5e 834d 17c1 b3bf
000006d0: a82d 29ff 13cb ea3f fbe5 6347 e538 d63f
000006e0: d4e1 3085 c585 da3f 5e1c 1062 b16d f03f
000006f0: a240 5c53 3092 f03f 4c54 963b bcdc e73f
00000700: ca7b 675e 3774 ed3f 484d 2cba df5c b3bf
00000710: 2480 a2d6 a071 ddbf 447d 89d2 f0eb c9bf
00000720: 7339 f7f3 8622 d8bf 32c9 8add f42c dabf
00000730: 5eee b186 fd11 e0bf 31c5 c2cf 3a21 d7bf
00000740: 3dbb 6cea 16f4 d3bf c3c0 ee21 cbcf a9bf
00000750: c785 5743 7080 df3f 21af 449d b36b d93f
00000760: 35ab 7793 5a62 b4bf eaf9 fa21 31ec 91bf
00000770: 1c21 09a5 348b ef3f ff34 910d c094 b0bf
00000780: cf8b ea76 e212 ce3f f10c 37cc c6e6 cdbf
00000790: 3333 3333 3333 fb3f 0000 0000 0000 1040
000007a0: 0000 0000 0000 1240 f760 229a 1bcb d6bf
000007b0: ed87 64ad c197 c0bf adf4 fa87 9b1c d0bf
000007c0: c60e 9945 c9ea d7bf 0e83 6255 0768 d7bf
000007d0: 0d2d b4e6 7859 d2bf 8cbb 5c37 fe56 cbbf
000007e0: 521f ba2a fff7 c3bf 3534 9e85 3906 f33f
000007f0: dae9 637a 761b e33f 2a96 8b13 e924 da3f
-0.34585349948811467 -0.20251283912782916 -0.16191986644157244 -0.27970323243034423 -0.36292821685066884 -0.31184095428531633 -0.06555848607669036 -0.19706561575557033
1.5949350091320764 1.1168522941996293 0.30110272049466275 0.019675678485686705 0.8480228893118097 0.26648193070881865 0.8869034990704673 0.20500201959497916
-0.42671968734728927 -0.20251283912782914 -0.2971848918386748 -0.35709369919775374 -0.4606402741203076 -0.3408128136491844 -0.12503862688442252 -0.11869671932072164
0.07394088011938749 -0.2025128391278292 0.12532124809633038 0.36055088227870175 0.8425021531024389 -0.049574716897014426 0.2801457441031 -0.3135938302179191
2.55 3.75 2.55 -0.3601445068252964 -0.20251283912782916 -0.19270133055437458 -0.3404478507111727 -0.3793685713912772
-0.3211035920146299 -0.1795591084187654 -0.13062408119178312 1.6709847155827109 1.0568811517756538 0.32750935424060057 0.5018729937066864 1.3965900967105076
0.7200536100854589 0.7865611131199657 0.43667766810627695 -0.40489439659219373 -0.20251283912782916 -0.38245921874705513 -0.24542861487560597 -0.404945495676583
-0.2673867218516298 -0.32271148263647 -0.031072056724935217 0.8591540992221882 0.44717453713190414 -0.0291772657604999 1.2269830855596862 1.2706576275021568
0.9390519963171449 0.1711086157570823 0.3242270322717977 1.85 4.0 3.6 -0.3920809541161764 -0.20251283912782916
-0.2456167325147588 -0.3631905808365146 -0.42145438478516867 -0.33695918491969556 -0.20948130607771076 -0.13282546706166387 1.607609960207182 1.036890770967662
0.35733177145616224 0.719641931390485 1.4745021081697811 0.8459191179861791 0.8553215439350346 0.38000521347067284 -0.431076701779357 -0.2025128391278292
-0.4510922124026856 -0.40622235660819783 -0.5016385792246949 -0.32427238913255296 -0.2479372169110974 -0.05411718692232076 0.14999058657002193 -0.2025128391278292
0.10167351638355027 0.3972811933313 0.8439942439698366 0.2999109992055894 -0.06846987232843839 -0.4251528556727413 1.7 4.0
4.75 -0.4042262489696087 -0.20251283912782916 -0.25995391150596325 -0.37349172886327064 -0.44150898183231135 -0.34349410351819626 -0.2048341608830184
-0.11662378610790135 1.4713542361497953 0.9269436765237071 0.3564778255887563 0.8135207243755302 1.4175912756691276 0.8157823062353025 0.8603881319726705
-0.006219148865702351 -0.4267196873472894 -0.20251283912782916 -0.3318682316840857 -0.3527413066482283 -0.4990740480463555 -0.35822378682458583 -0.32246794231697734
-0.04620329424969485 0.340114852696608 -0.2025128391278292 -0.27669019102093206 0.24140133666905397 0.9350117868810851 0.3227035459079332 -0.2049023902460778
-0.045109868178806224 1.36 5.25 7.5 -0.4177396968081445 -0.20251283912782914 -0.2941036615075986 -0.40410882060353115
-0.4713238267684281 -0.354487124120019 -0.2183124259192173 -0.09239789027785661 1.328761036554856 0.7970062012717605 0.41697660588728547 1.121585010063633
1.5232686113525569 1.021674978113141 0.9290833888562334 0.042593303307309 -0.45752276612283704 -0.2025128391278292 -0.20281394388720803 -0.39524349892101757
-0.497117847519622 -0.351178416283842 -0.00921367234561133 -0.004567479517118678 -0.040133679556564224 -0.2025128391278292 0.0780257846707701 0.6113920309305919
0.8290733352958614 0.1555582034240791 -0.07998155288327007 -0.07073560665251567 2.15 3.8 3.0 -0.4318999937123642
-0.20251283912782914 -0.32052261178047015 -0.40521231635606414 -0.4832916389340124 -0.3614515133901796 -0.20332976333846434 -0.08870065098121385 1.0084016481315583
0.4971504891518836 0.43412121137905113 1.016478089472265 1.1759471596940994 0.8387647908268324 1.0176141978325695 -0.05791345865381668 -0.44187452015448087
-0.20251283912782914 -0.40349686832134724 -0.40428091817603673 -0.4772197823526797 -0.36140318192618104 -0.27756917215488747 -0.047439774166909254 -0.1161833860071987
-0.2025128391278292 -0.2057469958825916 0.4214694469513036 0.5530365248273201 0.1251681411542875 0.11351246624923116 -0.22949239099887048 1.91
3.6 4.0 -0.3897353379181616 -0.17960719445200524 -0.28491857843781887 -0.3933842988675487 -0.41976296228177035 -0.31095969118151534
-0.20740609922354059 -0.0771650852433316 0.8372898086176308 0.3472226330919452 0.4144147682850676 1.0267804937918963 1.0356906181587324 0.7456952251255955
0.9204365581352871 -0.07563589377632696 -0.4600603195231108 -0.20251283912782914 -0.3771073706128824 -0.40899392733549 -0.5021960860025947 -0.361403181926181
-0.3117730416587852 -0.050413463489691356 0.4922142655978771 0.3971985851119247 -0.07962576008109752 -0.017502563189504196 0.9857428763726008 -0.06476974803191025
0.2349513130803573 -0.23360524150312004 1.7 4.0 4.5 -0.35614671756913147 -0.12963124243202576 -0.25174606589628007
-0.37370521351497776 -0.3657244047008569 -0.28671095399541074 -0.21359231665834633 -0.1560057600620391 1.189019700951815 0.5971023931918424 0.4085028353568726
