models/Layer_2/Data/Playerinputs20_21.npy (npy, 94768 bytes, 1 tensors)

array f8 [338, 35]
000000 ff 0e 24 06 1e ae da bf 45 7d 89 d2 f0 eb c9 bf
       -0.41687727546398884 -0.20251283912782916
000010 0d 43 06 26 dc 0b af 3f cb eb 74 f7 06 1a d5 bf
       0.06063735927739886 -0.3297135750360069
000020 0a 0d 1a 60 ba b3 dd bf 66 d6 59 e3 4c f6 d3 bf
       -0.4640947283262028 -0.31190797998656306
000030 d9 0c c5 43 9e 99 b9 bf b9 c4 9d 89 4d 4d bc bf
       -0.10000027803930624 -0.11055454835674795
000040 09 de 68 cf 88 55 e4 3f c3 86 10 18 c4 36 b7 3f
       0.6354412127465717 0.09067941272271711
000050 13 61 c2 0e 2d 3b e7 3f 51 b7 37 7e c7 06 d5 3f
       0.725973633600946 0.32853877378407953
000060 36 41 7f 64 e7 ee e0 3f 46 63 74 4d 25 8f d8 3f
       0.5291630709489599 0.3837369209664313
000070 5d e8 99 09 1d 37 bc 3f 04 ee a3 86 03 dd c1 bf
       0.11021596416858999 -0.13955730509029263
000080 c5 2f 6e 6d 30 0c db bf 46 7d 89 d2 f0 eb c9 bf
       -0.422618967881814 -0.2025128391278292
000090 d2 c6 18 fb 55 28 ca bf df aa dd 33 fa e0 d9 bf
       -0.20435595284066338 -0.40435652794864824
0000a0 ef 2a 0a 3f 8a 44 e0 bf a6 66 ea e1 34 f7 d6 bf
       -0.5083667021984563 -0.35883829176018833
0000b0 36 68 6e 36 a7 a6 d2 bf 38 90 7d cd 9e 68 a7 bf
       -0.2914217025332876 -0.04572006472042783
0000c0 6a 32 88 d2 e3 10 c8 3f 46 7d 89 d2 f0 eb c9 bf
       0.18801543979533913 -0.2025128391278292
0000d0 2f 69 09 15 a0 e0 af 3f 9f c0 3a 12 12 c6 bc 3f
       0.06226063019558336 0.11239731736236756
0000e0 cd 08 16 40 0f 29 d3 3f 17 fe d5 60 24 a5 93 bf
       0.2993810773697419 -0.01918465462722282
0000f0 56 3b a6 b5 5f 01 94 bf ef 10 fa d2 c3 b2 74 bf
       -0.019536490880962397 -0.005053296030045325
000100 66 66 66 66 66 66 f6 3f 00 00 00 00 00 00 12 40
       1.4 4.5
000110 00 00 00 00 00 00 20 40 64 44 ec a9 ea 6c dc bf
       8.0 -0.44414774507555976
000120 46 7d 89 d2 f0 eb c9 bf ea ec 5e 87 08 c0 c7 bf
       -0.2025128391278292 -0.18554789171125857
000130 1c cf ef fd ae 0e da bf e5 7b 59 bc b9 f4 de bf
       -0.4071462135172952 -0.4836868609763186
000140 55 6d 1f 17 3f 41 d5 bf 95 8d aa e6 8c 1b cb bf
       -0.33210732706148366 -0.2117782713222424
000150 39 ce e8 20 c4 9c b1 bf ff 4d e9 6a 1a 58 fb 3f
       -0.068798311266442 1.709009568808028
000160 71 0e e7 d1 af e6 ef 3f 56 46 89 32 a2 b6 dd 3f
       0.9969100093516784 0.4642720693128458
000170 e3 a3 2a 8d 17 a6 eb 3f d6 88 93 57 cb a9 f3 3f
       0.8640249020728529 1.2289536877583962
000180 9d 14 eb 5f 65 66 e9 3f 83 92 12 d7 b0 ad f1 3f
       0.7937495110897036 1.1049049760123644
000190 70 a2 47 7f 84 3e bb 3f 2d 11 52 d6 77 d0 da bf
       0.10642269236962831 -0.4189738839125024
0001a0 45 7d 89 d2 f0 eb c9 bf 37 ae 5e f3 eb 36 c9 bf
       -0.20251283912782916 -0.19698857672971012
0001b0 05 78 c5 27 42 08 d4 bf 9c 2a 3f 11 3d 57 de bf
       -0.3130040539161885 -0.47407461818935714
0001c0 eb 53 0d 9c e2 6c d4 bf d7 f5 c2 d6 04 bc d0 bf
       -0.31914582480868486 -0.26147576306160886
0001d0 bb 41 ff 2a f1 f7 a4 bf a0 6f 67 f7 55 bd c3 3f
       -0.04095414781443504 0.15421557026172383
0001e0 46 7d 89 d2 f0 eb c9 bf 35 ae 5e f3 eb 36 c9 bf
       -0.2025128391278292 -0.19698857672971007
0001f0 4f f1 53 b0 1a 52 c8 bf 07 79 2b da 6b 77 e4 3f
       -0.1900056229568556 0.6395777951363762
000200 05 cd 69 ab 02 71 b9 bf 89 b4 88 2f a1 dc bd bf
       -0.09938065228361743 -0.11664779100893176
000210 b0 fd db c9 17 ef 9f bf 33 33 33 33 33 33 01 40
       -0.031185504622951832 2.15
000220 cd cc cc cc cc cc 0c 40 9a 99 99 99 99 99 09 40
       3.6 3.2
000230 98 dd e0 f2 ed 6b db bf 45 7d 89 d2 f0 eb c9 bf
       -0.4284624931201164 -0.20251283912782916
000240 5b 2a 06 fc 80 c1 c6 bf ee 8d c6 ff 9c 6a d6 bf
       -0.1777802687250468 -0.3502571580704331
000250 ac 1a ab ed 0b 96 de bf 88 f4 b8 59 c5 6c d6 bf
       -0.4779081173877937 -0.35038884889565525
000260 95 50 9c 16 a1 60 c9 bf 22 94 ad 59 fe ec ab bf
       -0.1982613907245009 -0.054542492339159546
000270 06 4a 77 44 3b 4e f1 3f 6b 41 06 49 50 d1 df 3f
       1.081599490590294 0.4971504891518836
000280 76 1b cd 9b 51 f0 da 3f 54 68 ae f9 a7 d6 ec 3f
       0.4209178945060822 0.9012031437480439
000290 ca c3 0a bc ec b3 ec 3f 02 34 43 6b 69 81 ee 3f
       0.8969634697624482 0.9532973380061096
0002a0 bc 33 f1 00 b8 d1 ef 3f d6 1e 48 fa e3 d6 eb 3f
       0.9943504351045855 0.8699817550959448
0002b0 22 15 c1 da 18 cc dc bf 45 7d 89 d2 f0 eb c9 bf
       -0.44995709765164993 -0.20251283912782916
0002c0 9e 9a fd 77 a7 05 dc bf 3a 0f e0 8c 9d ef d5 bf
       -0.4378451034339522 -0.342749965260953
0002d0 e7 63 75 57 2b 5f df bf 60 d5 53 57 f7 bc cf bf
       -0.4901836732947786 -0.24795429004704328
0002e0 04 6d 39 93 f8 33 ce bf 3f e2 e4 82 f1 83 a3 bf
       -0.23596102894484983 -0.03811602328136531
0002f0 d3 7b 77 92 da 84 f9 3f 71 0e e7 d1 af e6 ef 3f
       1.5949350091320766 0.9969100093516784
000300 67 c0 87 7a 31 1f c9 3f 18 7c 94 6e 98 37 e2 3f
       0.1962644432346707 0.569286552406882
000310 d4 ba 67 ed a6 a3 ef 3f d1 e5 57 1f 57 f2 db 3f
       0.9887270581073957 0.4366662794196517
000320 1f 8f e7 a7 9f f6 c2 bf cb 03 b3 0b 61 85 a6 bf
       -0.14815135668242704 -0.04398635165990291
000330 00 00 00 00 00 00 fc 3f 66 66 66 66 66 66 0e 40
       1.75 3.8
000340 00 00 00 00 00 00 12 40 80 8a fd 2f d8 46 dc bf
       4.5 -0.4418240040451238
000350 45 7d 89 d2 f0 eb c9 bf 36 fe f0 45 8c 73 c4 bf
       -0.20251283912782916 -0.15977624335390467
000360 42 c2 be e7 29 79 d7 bf e8 6b c1 23 b0 3b df bf
       -0.36677024489748444 -0.48801806918862534
000370 f1 13 09 b2 c1 93 d6 bf 52 4e 09 1e 5c 2a c6 bf
       -0.3527683485629601 -0.1731677195226547
000380 1c 52 45 86 9e 4c a0 bf a2 57 c6 c9 85 07 f3 3f
       -0.0318345583824888 1.1893365747286926
000390 a7 10 1b 65 71 af dd 3f 8d 67 5a a9 0d 55 d8 3f
       0.4638331878052306 0.38019124544518307
0003a0 a0 a4 76 40 ef b1 f4 3f 7b 0f 1f 0e b1 96 e8 3f
       1.293441058931684 0.7683949733550287
0003b0 6a 52 fa e7 cb 73 f5 3f e0 91 77 ac 1a 7a ed 3f
       1.340770631945953 0.9211552971360639
0003c0 b3 93 00 24 83 89 e7 3f 4b 09 74 cd 35 d9 d6 bf
       0.7355361655396478 -0.3570074564342078
0003d0 45 7d 89 d2 f0 eb c9 bf dd 5a 90 3b b6 33 e0 3f
       -0.20251283912782916 0.5063124812466772
0003e0 ac dc b4 d7 17 a6 b2 bf b2 ad 16 f7 d8 2e d2 bf
       -0.07284688011428625 -0.28410934571976576
0003f0 29 ab 34 55 8f dd af bf e2 30 f2 c1 26 11 b8 bf
       -0.06223724284276095 -0.09401170954714957
000400 11 c5 f7 69 5a 9e ca bf 91 49 a7 8f ff ca d2 3f
       -0.20795755552493536 0.29364003208788697
000410 46 7d 89 d2 f0 eb c9 bf ce 4d 65 3c d4 ec ef 3f
       -0.2025128391278292 0.9976597957233311
000420 4e 98 34 67 05 ce f3 3f 84 32 f5 4e eb a0 ed 3f
       1.2377981215918399 0.9258934538025447
000430 1e 64 6f 05 c0 65 ee 3f f2 62 90 42 e9 d0 ef 3f
       0.9499206644205775 0.9942518520429913
000440 70 b8 52 d7 51 fc f8 bf 00 00 00 00 00 00 1a 40
       -1.5616014872607842 6.5
000450 66 66 66 66 66 66 12 40 33 33 33 33 33 33 f7 3f
       4.6 1.45
000460 60 ed 39 11 ee 73 dc bf 44 7d 89 d2 f0 eb c9 bf
       -0.44457580263379803 -0.20251283912782914
000470 f4 f9 82 0c 34 0c c5 bf f3 c1 17 cb c1 7a d7 bf
       -0.16443491564673673 -0.36686749299317895
000480 b1 1a 22 7f 91 98 df bf 3a 87 08 44 65 2b d7 bf
       -0.4936870328460073 -0.36202365535619985
000490 a1 2b 74 55 d6 2b c7 bf 6a c4 d9 0b b7 8e 94 bf
       -0.18102530643986106 -0.020075664614016032
0004a0 16 8b db ca b6 91 ef 3f 20 af 44 9d b3 6b d9 3f
       0.9865373575270009 0.39719858511192463
0004b0 13 e6 55 ad 5c fa d5 3f 76 cc 0c 32 90 7d f0 3f
       0.3434058850030805 1.0306550936773227
0004c0 cf a2 d5 30 cd 52 ea 3f e6 1c 61 43 6c b2 f2 3f
       0.8226076082038051 1.1685602790838003
0004d0 dd b2 2d 2d d6 02 ec 3f c3 98 1b 5e 7b ee e2 3f
       0.8753462679283889 0.5916115606348956
0004e0 05 6d a1 4d 2c f4 dc bf 45 7d 89 d2 f0 eb c9 bf
       -0.45240314084158256 -0.20251283912782916
0004f0 8f 1b 7b 48 42 de d7 bf 30 c9 8a dd f4 2c da bf
       -0.3729406078168091 -0.4089939273354899
000500 71 86 ba c4 4b 3e e0 bf d3 22 78 53 1b 87 d2 bf
       -0.5076044885974637 -0.2894962611322118
000510 43 d4 73 7f 5d a8 d1 bf e1 33 25 20 87 01 a9 bf
       -0.2759011978772074 -0.048839781450261695
000520 78 d7 93 e1 5a de f5 3f 27 7c 25 26 13 81 e9 3f
       1.3667858897801732 0.7970062012717606
000530 83 e7 6a e1 60 28 cd 3f 71 96 93 95 d1 cd e6 3f
       0.22779475218504439 0.7126243516365333
000540 7a ac e8 6a 50 a8 e4 3f 10 74 1f 72 46 22 e1 3f
       0.6455461586059663 0.5354339817964746
000550 92 c4 b8 18 d6 36 d0 3f 23 b2 c7 94 d8 95 90 bf
       0.25334694303735106 -0.01619661720353539
000560 66 66 66 66 66 66 fe 3f 00 00 00 00 00 00 0e 40
       1.9 3.75
000570 66 66 66 66 66 66 0e 40 2c d2 6d 17 60 4f db bf
       3.8 -0.4267196873472894
000580 45 7d 89 d2 f0 eb c9 bf c4 b1 c9 49 84 06 b9 bf
       -0.20251283912782916 -0.09775568772756232
000590 f4 f5 3b c1 fc ec d4 bf ac ae d3 aa 93 fa de bf
       -0.32696455832032645 -0.4840439956885614
0005a0 c0 9b c0 1f ba e8 d0 bf b4 d6 4d a9 d3 ef b6 bf
       -0.264204531677418 -0.08959696658515776
0005b0 34 23 4a 21 70 eb c2 bf 17 4a 58 a1 7f 2b f0 3f
       -0.14780999780148252 1.0106197645697017
0005c0 13 15 83 8b f4 40 c9 3f 91 68 ba 52 26 2b d1 3f
       0.19729477703200668 0.268258648671357
0005d0 bd fb 3a f5 b0 cd e5 3f 6b 11 cc 0b e5 36 fb 3f
       0.6813587941795657 1.7009020291162311
0005e0 94 bb 4b e1 5d c3 ec 3f 49 c2 ac 99 7d 74 e2 3f
       0.8988484764393996 0.5767200471364698
0005f0 68 67 9d 96 14 eb bd 3f e6 bc e6 c1 de 44 da bf
       0.1168682925903376 -0.410453500134237
000600 45 7d 89 d2 f0 eb c9 bf bc 01 09 33 0b 9e b9 3f
       -0.20251283912782916 0.10006780620552197
000610 b3 8d ec aa 8e 13 d5 bf 19 a0 21 8d 0b 27 db bf
       -0.32931868259239677 -0.42425812513693156
000620 91 a2 9d 19 da ff d3 bf 34 f3 bd 98 c0 1f d1 bf
       -0.3124909639505314 -0.26756300846300296
000630 b1 cd dc 3a 63 63 b4 bf b9 97 df 3d 1b 9c f1 3f
       -0.07964153468201719 1.1006119172029527
000640 9f 1a 4f 5e 55 3d e5 3f c0 0d a3 84 e1 f8 e9 3f
       0.6637369958851486 0.8116309729161273
000650 bb 3c 6e 3c fa 6f e1 3f d1 29 51 d0 c8 7e f0 3f
       0.5449191265378411 1.0309532296547455
000660 d6 a7 6c 6b 09 9b e3 3f 4b 80 04 19 95 d5 e4 3f
       0.6126753900655284 0.6510720718979511
000670 35 11 5f 48 1b c5 e9 3f 9a 99 99 99 99 99 05 40
       0.8053108609679273 2.7
000680 33 33 33 33 33 33 0b 40 cd cc cc cc cc cc 04 40
       3.4 2.6
000690 7c ae fa 58 3d d9 d8 bf 1d 0e 74 57 19 67 c4 bf
       -0.38825925530793604 -0.15939633150274882
0006a0 a3 92 d6 c2 b5 93 bf bf 2e 62 34 5e 8f e3 d2 bf
       -0.12334762579718954 -0.29513916206045365
0006b0 92 84 3d 0c 42 73 da bf ee 82 5b 72 14 c2 d0 bf
       -0.41328478999464224 -0.26184569518777223
0006c0 25 ea a0 a8 45 e8 b9 bf c6 d4 74 4d f2 25 7c bf
       -0.10120044104488864 -0.006872126097097813
0006d0 c3 9c 86 19 78 b9 fa 3f fc 30 95 56 b5 8b ef 3f
       1.6702805516340937 0.9858042422361275
0006e0 6e 69 5d 04 b6 88 d3 3f ca 3a 8e 07 02 91 ea 3f
       0.30521917749651706 0.8302011630601893
0006f0 f7 99 03 af a6 9a f3 3f fc ef 3d 9c a4 04 f0 3f
       1.2252566181647333 1.0011335471344855
000700 ae 04 ac e7 79 2d ec 3f ef d2 14 a9 6a 1e b0 bf
       0.8805512928812698 -0.06296412113153925
000710 db ff 39 85 97 c1 db bf 45 7d 89 d2 f0 eb c9 bf
       -0.4336909104385975 -0.20251283912782916
000720 d9 0f 01 b9 94 75 d7 bf 5b a7 3b e7 27 d4 d9 bf
       -0.3665515715294965 -0.4035739668021187
000730 5b f2 3d 40 11 06 de bf db 00 57 ef 97 74 d5 bf
       -0.4691203238833503 -0.335241302233056
000740 74 bb d5 22 f2 a2 d2 bf e3 26 23 f7 2e de 9a bf
       -0.29119542505116347 -0.02623818763166853
000750 cf d4 d1 9d b7 d5 e5 3f 14 15 83 8b f4 40 c9 3f
       0.6823385317244631 0.1972947770320067
000760 30 a8 8f 0b 9f 53 c9 bf 0d b4 fc e6 0d 5f d0 bf
       -0.19786441864499826 -0.2558016544087998
000770 e4 7f 7e 66 f9 b7 e9 3f 31 c6 2f 4d 60 43 b8 3f
       0.8037077905501033 0.09477807888449587
000780 60 fe 3a 1a c5 57 c6 bf d6 b3 b1 98 53 5f c0 bf
       -0.1745535257414188 -0.12790913539666232
000790 00 00 00 00 00 00 02 40 66 66 66 66 66 66 0a 40
       2.25 3.3
0007a0 66 66 66 66 66 66 0a 40 12 2c 49 76 5d dd d0 bf
       3.3 -0.263511052621369
0007b0 1d 59 63 fe ef 5a a6 bf b1 c3 63 ed 63 e7 ba bf
       -0.04366254787753319 -0.10509323640486802
0007c0 76 6a 4f a9 db 04 d1 bf 66 15 d4 ba 2c 5c d2 bf
       -0.2659215119762516 -0.28687589879003494
0007d0 3b 26 d5 8f 4f a2 c9 bf 39 ee ca 35 31 80 ae bf
       -0.20026583216740498 -0.05957177907609119
0007e0 7f 76 9a 07 ca d6 8b bf b8 53 5a e7 22 1a f9 3f
       -0.013593271595989663 1.568880943033248
0007f0 ed 6d e8 c6 39 04 e7 3f 78 f2 13 60 a9 5d d3 3f
       0.7192658314629036 0.3025916517506526
